best_weights/best_compact_cifar10_fp32.pt (torch, 936459 bytes, 116 tensors)

stem.0.weight f4 [40, 3, 3, 3]
4.784493e-10 3.6204703e-10 -6.6499134e-10 7.212909e-10 4.7446835e-10 -4.0124043e-10 6.9177214e-10 6.0764954e-10
2.1699315e-10 8.903967e-10 9.689135e-10 3.79238e-11 1.3033694e-09 8.39373e-10 -1.1772894e-10 1.1677219e-09
6.7105854e-10 1.6209054e-10 -5.5953836e-10 -7.842907e-10 -1.2333072e-09 -8.9735386e-10 -1.7484547e-09 -2.1026882e-09
-3.9510212e-10 -1.2925113e-09 -1.4250174e-09 0.01572078 -0.21615535 0.15900545 0.1071035 -0.29313502
0.24528216 0.087459415 -0.14454147 0.08469656 0.061256405 -0.17039235 0.08187438 0.12463549
-0.26655462 0.19539748 0.011691486 -0.15419596 0.04091206 0.038846754 -0.09587804 0.03377805
0.08975786 -0.14576054 0.17007542 -0.006606241 -0.08611264 0.023512503 -0.09312409 0.1341268
-0.07799107 -0.042122032 0.14900292 -0.041901052 0.1064912 0.2782958 0.085579336 -0.08323099
0.13792223 -0.08557894 -0.05458872 0.12465235 -0.06745885 0.13083759 0.27627364 0.08206232
-0.08842812 0.14213 -0.0771633 -0.08544945 0.08868659 -0.087821275 0.11273312 0.24695773
0.06710559 0.23260644 0.37485933 0.26578042 0.11738913 0.31575087 0.35690418 -0.1832701
-0.04966679 0.1504324 -0.08574986 -0.06305313 -0.09595088 -0.052648645 -0.079188876 -0.07423106
-0.056581236 -0.10390997 -0.08376188 -0.09664208 -0.17794238 -0.22614677 -0.0183585 -0.15379266
-0.18577471 0.110157594 0.0028036153 -0.024602843 1.1791952e-06 -1.0901378e-05 4.3757038e-05 -2.6127122e-05
-4.81593e-05 2.6033735e-05 -8.536157e-06 -7.2234165e-05 -4.4632243e-06 -1.1860651e-05 -2.989242e-05 2.0231122e-05
-2.4835916e-05 -5.2829975e-05 1.4252815e-05 1.6912253e-06 -6.5580236e-05 -7.2631424e-06 -6.402953e-06 -2.835092e-05
1.6880438e-05 -1.8363391e-05 -4.807293e-05 7.907831e-06 3.0047001e-06 -5.6446705e-05 -3.552771e-06 -0.1705106
0.21772136 -0.045628786 0.18757762 -0.105551206 -0.096818015 -0.05950381 -0.13174161 0.19895737
-0.022449465 0.23042202 -0.10563635 0.19919708 -0.19188672 -0.10185983 -0.035197515 -0.16183889
0.16620636 -0.06731457 0.20442945 -0.039517708 0.19031437 -0.13191548 -0.12773919 0.039338827
-0.15342273 0.12200344 0.046673894 0.110259145 -0.13616045 -0.082780495 0.08695149 -0.016561007
-0.11645114 -0.015262191 0.11633544 0.03573757 0.1250625 -0.11713683 -0.056016587 0.12055299
0.012473435 -0.11017596 -0.03360007 0.10068773 0.0949124 0.19991522 -0.16383275 -0.044251967
0.22252424 0.052243583 -0.24301073 -0.035114467 0.12974061 0.039015263 0.11178624 0.067995235
0.09834964 0.106623925 0.035788342 0.180295 0.10468663 0.007870828 -0.28528792 -0.326615
-0.2473647 -0.3117277 -0.34531063 -0.19556339 -0.16046853 -0.17697757 -0.10128258 0.21568812
0.2665962 0.16422375 0.17942126 0.22029167 0.19501762 0.096614845 0.08404707 0.025976192
-0.0451042 0.17303737 -0.027108844 -0.14413668 -0.11100513 0.31119403 0.1767454 -0.2745355
-0.0024149432 -0.072116554 0.0981852 0.011256335 -0.10028387 -0.21470016 0.21186267 0.2198123
-0.2286529 -0.07265544 0.039322134 0.062892504 -0.18348019 -0.037117455 -0.020531371 0.08985349
0.11123355 -0.026326276 0.034467492 -0.08932597 0.036673125 0.1332325 -0.13416389 0.05269399
0.24280582 -0.20554416 -0.07775663 0.07363474 -0.029555969 -0.18365383 -0.25910208 0.22172824
00000000: e083 0330 9709 c72f 9bca 36b0 5644 4630
00000010: be6b 0230 9295 dcaf 2327 3e30 8907 2730
00000020: 2496 6e2f 19c0 7430 9d2a 8530 67ca 262e
00000030: 3c22 b330 a0b9 6630 c071 01af 907d a030
00000040: 8c75 3830 6e38 322f 03ce 19b0 8d95 57b0
00000050: 2481 a9b0 aaa9 76b0 484e f0b0 e27e 10b1
00000060: ae35 d9af 33a4 b1b0 58da c3b0 ddc8 803c
00000070: d457 5dbe 53d2 223e 1459 db3d cb15 96be
00000080: 3f2b 7b3e ec1d b33d ae02 14be 6475 ad3d
00000090: ffe7 7a3d 557b 2ebe c1ad a73d e440 ff3d
000000a0: d979 88be 4716 483e a68d 3f3c 8ce5 1dbe
000000b0: 6793 273d c61d 1f3d b55b c4bd da5a 0a3d
000000c0: f8d2 b73d 4042 15be 4028 2e3e 2b79 d8bb
000000d0: d35b b0bd 4b9d c03c d8b7 bebd 8958 093e
000000e0: c8b9 9fbd 2788 2cbd 3994 183e 70a0 2bbd
000000f0: 0f18 da3d c97c 8e3e 3844 af3d 0275 aabd
00000100: 7c3b 0d3e 0344 afbd 6c98 5fbd bb49 ff3d
00000110: de27 8abd 4afa 053e bd73 8d3e 4a10 a83d
00000120: cd19 b5bd 878a 113e cb07 9ebd 1f00 afbd
00000130: 51a1 b53d a4db b3bd 9fe0 e63d 7de2 7c3e
00000140: a86e 893d 6230 6e3e 90ed bf3e 5f14 883e
00000150: b669 f03d 19aa a13e 25bc b63e 28ab 3bbe
00000160: 676f 4bbd f30a 1a3e 9f9d afbd 0022 81bd
00000170: e581 c4bd 1ba6 57bd c72d a2bd 7406 98bd
00000180: bac1 67bd c0ce d4bd 598b abbd 48ec c5bd
00000190: 8736 36be 0593 67be 9164 96bc d37b 1dbe
000001a0: ba3b 3ebe 4e9a e13d dcbc 373b e78b c9bc
000001b0: d744 9e35 10e5 36b7 c387 3738 912b dbb7
000001c0: a8fe 49b8 0563 da37 8436 0fb7 6c7c 97b8
000001d0: cec2 95b6 1cfd 46b7 7cc1 fab7 01b6 a937
000001e0: b956 d0b7 c195 5db8 601f 6f37 0ffe e235
000001f0: 1f88 89b8 ebb5 f3b6 f3d8 d6b6 23d3 edb7
00000200: 779a 8d37 150b 9ab7 eaa1 49b8 e0ab 0437
00000210: 5ba4 4936 30c1 6cb8 246c 6eb6 559a 2ebe
00000220: 59f2 5e3e 40e5 3abd 5914 403e 3b2b d8bd
00000230: 8648 c6bd 44ba 73bd 46e7 06be 7bbb 4b3e
00000240: f1e7 b7bc c0f3 6b3e df57 d8bd 52fa 4b3e
00000250: f47d 44be e39b d0bd 452b 10bd 18b9 25be
00000260: 0032 2a3e 39dc 89bd f455 513e 52dd 21bd
00000270: c5e1 423e da14 07be 10ce 02be c021 213d
00000280: d91a 1dbe f1dc f93d 202d 3f3d 8ccf e13d
00000290: a56d 0bbe d288 a9bd 9f13 b23d f3aa 87bc
000002a0: ef7d eebd 450e 7abc 4641 ee3d 8f61 123d
000002b0: 6210 003e 6fe5 efbd a671 65bd 7ce4 f63d
000002c0: 615d 4c3c efa3 e1bd 3aa0 09bd 5e35 ce3d
000002d0: 6f61 c23d 93b6 4c3e c6c3 27be 8d41 35bd
000002e0: 65dd 633e 5efd 553d ced7 78be 30d4 0fbd
000002f0: b9da 043e 78ce 1f3d 2ff0 e43d 1641 8b3d
00000300: 896b c93d a55d da3d cc96 123d 419f 383e
00000310: f265 d63d a5f4 003c 4211 92be 153a a7be
00000320: 2c4d 7dbe c69a 9fbe 8ecc b0be c541 48be
00000330: dd51 24be 9c39 35be 3e6d cfbd 59dd 5c3e
00000340: 4c7f 883e 452a 283e 35ba 373e 2494 613e
00000350: b3b2 473e 01de c53d df20 ac3d 06cc d43c
00000360: 2ebf 38bd b530 313e 5e13 debc 9198 13be
00000370: a856 e3bd d354 9f3e bffc 343e eb8f 8cbe
00000380: 0644 1ebb d8b1 93bd 5215 c93d 7e6c 383c
00000390: a161 cdbd 5cda 5bbe 87f2 583e 7a16 613e
000003a0: fc23 6abe 60cc 94bd 3f10 213d c9cd 803d
000003b0: 3be2 3bbe 7908 18bd 6831 a8bc 1b05 b83d
000003c0: 6ace e33d 34aa d7bc c92d 0d3d 89f0 b6bd
000003d0: 8f36 163d 1a6e 083e 4262 09be a7d5 573d
000003e0: 17a2 783e 2b7a 52be de3e 9fbd d0cd 963d
000003f0: 5c1f f2bc c00f 3cbe 07a9 84be ba0c 633e

stem.1.weight f4 [40]
-5.7876794e-11 0.22949404 -0.3668879 0.22747512 -1.6810554e-06 0.11263074 0.1294807 0.24154386
0.14371204 0.14322776 0.18905857 0.22893053 0.12062386 -4.559397e-10 5.915012e-10 0.14566855
0.23171927 0.25164667 0.1459924 -2.4746146e-07 0.11334785 9.0828574e-11 0.30394557 5.857193e-06
0.3419788 -0.16883914 -6.882286e-11 0.110871516 0.13001879 0.13570794 0.19974811 0.27336428
0.1860342 -0.13809864 0.19213982 6.0770006e-08 0.09031088 0.15557593 0.3125273 0.12793647
00000000: 7a8b 7eae 7c00 6b3e bbd8 bbbe 3def 683e
00000010: a0a0 e1b5 f2aa e63d 9796 043e 4657 773e
00000020: 4029 133e 4caa 123e 9298 413e c46c 6a3e
00000030: a409 f73d cfa7 faaf 3297 2230 232a 153e
00000040: d147 6d3e d5d7 803e 087f 153e d8da 84b4
00000050: eb22 e83d f1bb c72e c19e 9b3e e888 c436
00000060: d817 af3e 2be4 2cbe d357 97ae 9b10 e33d
00000070: a523 053e 06f7 0a3e c58a 4c3e 67f6 8b3e
00000080: c07f 3e3e bb69 0dbe 4dc0 443e aa80 8233
00000090: e9f4 b83d 4c4f 1f3e 9403 a03e c701 033e

stem.1.bias f4 [40]
-3.3224412e-09 0.23712718 -0.45190504 0.18015009 -0.0001297765 0.275721 0.20123306 0.05745628
0.2951857 0.19474654 0.1740487 -0.010880278 0.23818293 -5.6325513e-09 5.3761405e-11 0.22090514
0.23696524 0.2020323 0.27940628 -2.4163942e-06 0.2781065 -8.987247e-09 0.24312437 -7.650222e-05
0.23075664 0.19854093 -9.2909647e-10 0.3003731 0.2443807 0.25624564 -0.07996809 0.10888856
0.28351548 0.24053638 0.2551946 -1.9498967e-07 0.17396438 0.270892 0.12176401 0.26020825
00000000: 0151 64b1 78d1 723e 1960 e7be 4479 383e
00000010: 9d14 08b9 4e2b 8d3e 0a10 4e3e 4757 6b3d
00000020: 9422 973e a36b 473e d339 323e 3243 32bc
00000030: 3ae6 733e 7288 c1b1 f671 6c2e f534 623e
00000040: 04a7 723e 8ee1 4e3e 570e 8f3e 5629 22b6
00000050: fa63 8e3e 5566 1ab2 98f5 783e d16f a0b8
00000060: 784b 6c3e 504e 4b3e 5a63 7fb0 81ca 993e
00000070: ef3e 7a3e a132 833e 4fc6 a3bd f700 df3d
00000080: f128 913e 2b4f 763e dea8 823e 5a5e 51b4
00000090: b823 323e 5bb2 8a3e 695f f93d 043a 853e

stem.1.running_mean f4 [40]
6.449228e-11 0.0414616 -0.31148404 -0.06457759 9.536211e-05 0.010966834 -0.08069147 0.046946544
0.023684591 -0.040095735 -0.008582779 -0.15726899 -0.02015191 3.5619945e-09 2.8643218e-10 -0.06297118
0.034803852 -0.049681023 0.059097156 1.464814e-06 -0.0029448168 6.8647683e-09 0.014746632 5.90641e-05
0.020989388 0.047490094 -2.0877804e-10 -0.029217884 -0.0357639 0.019961322 -0.16366437 0.05709123
-0.08787103 -0.06119129 0.04198178 1.7216485e-07 -0.23297258 0.035944242 -0.032093298 0.041792404
00000000: edd1 8d2e a4d3 293d d67a 9fbe 4141 84bd
00000010: 25fd c738 3cae 333c 9241 a5bd 054b 403d
00000020: 3006 c23c 6d3b 24bd c99e 0cbc 1f0b 21be
00000030: 9e15 a5bc 45c7 7431 bf77 9d2f 09f7 80bd
00000040: 7c8e 0e3d 547e 4bbd dc0f 723d a09a c435
00000050: d4fd 40bb 24df eb31 dc9b 713c 98bb 7738
00000060: f0f1 ab3c f984 423d cb8d 65af 585a efbc
00000070: 2b7d 12bd ed85 a33c a297 27be 7ed8 693d
00000080: baf5 b3bd b8a3 7abd 16f5 2b3d 50dc 3834
00000090: 5d90 6ebe 453a 133d 4374 03bd 832e 2b3d

stem.1.running_var f4 [40]
3.001563e-17 0.3861595 2.034151 0.59053993 1.7015189e-07 0.08038217 0.27330598 0.31034964
0.09908434 0.19338493 0.09408702 0.49390918 0.06321533 2.6970265e-16 2.2082695e-18 0.3844021
0.38558722 0.28147405 0.1680737 3.929275e-11 0.07287879 8.2085915e-16 3.089286 5.98279e-08
2.881732 0.19371763 3.9799795e-18 0.12246041 0.17954016 0.04925417 0.5871686 0.8245634
0.5643163 0.20417804 0.48971632 5.4667864e-13 1.0574434 0.17743285 0.5156054 0.15091613
00000000: 346c 0a24 b3b6 c53e 882f 0240 a02d 173f
00000010: ffb2 3634 689f a43d c3ee 8b3e 26e6 9e3e
00000020: bbec ca3d b306 463e b2b0 c03d aae1 fc3e
00000030: 0a77 813d 1679 9b25 08f1 2222 5ad0 c43e
00000040: b06b c53e 5e1d 903e 831b 2c3e b4cf 2c2e
00000050: 7a41 953d b798 6c26 ddb6 4540 bc7a 8033
00000060: 4c6e 3840 ea5d 463e d8d5 9222 86cc fa3d
00000070: 60d9 373e bebe 493d ae50 163f 9616 533f
00000080: 0877 103f 0c14 513e 19bc fa3e 59e0 192b
00000090: 4e5a 873f f5b0 353e b7fe 033f c289 1a3e

blocks.0.dw.weight f4 [40, 1, 3, 3]
-2.943556e-10 -1.5010641e-10 -1.220202e-09 2.0771813e-10 1.1357741e-09 3.082526e-10 8.934892e-10 1.8629747e-09
4.7582566e-10 0.036966637 -0.049933348 0.043882184 -0.051620614 0.33900034 -0.30550486 -0.11361539
0.34474814 -0.26284808 0.0030220898 0.099194415 0.0640338 0.04937752 0.16204175 0.17468946
-0.11796557 0.039377663 0.054098208 -0.13044554 -0.18334629 -0.29554725 0.102957875 0.17467593
-0.063422024 0.101748616 0.40794078 0.18482602 -2.4570487e-05 1.5100629e-05 1.0833955e-05 -4.65454e-06
4.0679693e-05 8.345088e-05 -4.8086848e-05 -3.4901568e-06 5.3560096e-05 -0.07622233 -0.014239862 0.06773889
-0.15709037 0.49279553 -0.2732617 0.23202863 -0.2053854 -0.039268702 0.061734423 -0.08285833
-0.082122706 0.10517268 0.06494543 -0.32318687 0.027491074 0.35247356 -0.12522908 0.13349512
0.014374481 0.1293907 -0.0060697086 -0.24330352 -0.093382046 0.048399042 -0.21569629 -0.026206322
0.14608751 0.0017619819 -0.12591308 -0.27088818 0.45835224 -0.04407897 0.01857267 -0.34390974
0.22167909 -0.041508466 0.12366601 0.15384641 -0.19224729 0.05096465 0.22150117 -0.16790423
-0.17550094 -0.05251656 -0.088501506 -0.20171545 0.002472043 -0.1961205 -0.003824627 0.24899042
-0.039535396 0.31470633 0.21948002 -0.014989469 -0.014076877 -0.05081789 -0.049105305 -0.09907534
-0.09414261 -0.0021225556 -0.11157652 -0.061804373 -0.06515016 0.0259617 0.052134905 -0.16083987
0.34103656 -0.26858 0.24674012 -0.37601548 0.21331751 1.9631868e-10 3.0290076e-11 2.814469e-10
-6.858244e-10 -2.159264e-09 -1.9191064e-09 1.2610983e-11 -1.2700547e-09 -1.0256115e-09 -2.3750132e-11 -2.1955752e-10
-8.390158e-11 5.5488314e-10 3.6364933e-10 -1.9226523e-10 3.0048705e-10 4.2711193e-10 -4.539833e-11 0.05088757
-0.07013999 -0.0044192453 0.30298752 -0.118599474 -0.24741305 0.25659534 -0.01602225 -0.15315868
-0.049980655 0.055906463 -0.04683515 0.34160212 -0.31179255 -0.0037636578 0.2684929 -0.38969952
0.13031428 0.0001624406 0.23349923 0.2321851 -0.05658528 -0.25861326 -0.35930184 -0.0430967
0.16719964 0.13266046 -0.059652857 -0.12414549 0.1632406 0.35717586 -0.3711617 -0.16663416
-0.0727609 0.3681596 -0.113544516 2.6969127e-08 -5.8501453e-08 -1.1400668e-07 4.6576992e-07 5.1401497e-07
6.187847e-07 4.4272403e-07 3.2309325e-07 5.777843e-07 -0.06678833 0.22969103 -0.053188033 -0.18112937
0.06278943 0.30250174 -0.09008213 -0.23955946 0.04100765 -2.3751614e-09 -2.364192e-09 -3.0861298e-09
2.513443e-09 3.0541123e-09 4.2507953e-10 4.7876108e-09 4.544466e-09 2.8483218e-09 0.028346576 -0.16684683
-0.031106666 -0.040451787 -0.2986468 -0.2066483 0.021062996 -0.20079114 -0.07479893 -8.722449e-06
4.7065673e-06 1.8260156e-08 7.654399e-06 1.8193641e-05 1.9340256e-05 1.6842622e-06 2.168128e-05 1.9284758e-05
0.068465 0.031889796 0.039412957 -0.22209288 -0.17379327 -0.19006106 -0.21409191 -0.12110241
-0.12150053 -0.109258756 -0.24633655 -0.04848215 0.2624564 0.18439685 -0.10254753 -0.16004312
0.11856059 0.098883756 -2.271191e-10 -2.959333e-11 -3.724518e-11 -2.1712811e-10 1.0497791e-10 2.796461e-10
-2.6718952e-11 4.985962e-10 4.900561e-10 -0.030938847 0.21550882 0.011995842 0.17420712 0.060366478
-0.2535432 0.22093572 -0.15095785 -0.27509034 -0.15830052 0.1214122 0.11001958 0.1130454
00000000: ded2 a1af 330b 25af 0bb4 a7b0 7563 642f
00000010: 8019 9c30 b276 a92f b799 7530 cc05 0031
00000020: 41cb 0230 546a 173d e986 4cbd cebd 333d
00000030: 2370 53bd 7491 ad3e 226b 9cbe 30af e8bd
00000040: d482 b03e 0694 86be 410e 463b 7126 cb3d
00000050: 2724 833d 1540 4a3d 46ee 253e cbe1 323e
00000060: ef97 f1bd 794a 213d 1596 5d3d 8493 05be
00000070: 21bf 3bbe f851 97be 94db d23d 3fde 323e
00000080: 68e3 81bd 9461 d03d 9ddd d03e 0843 3d3e
00000090: b81c ceb7 b558 7d37 7bc3 3537 322e 9cb6
000000a0: 7d9f 2a38 5a02 af38 dcb0 49b8 7038 6ab6
000000b0: b7a5 6038 741a 9cbd 4f4e 69bc b0ba 8a3d
000000c0: 4cdc 20be b24f fc3e f5e8 8bbe ea98 6d3e
000000d0: 8d50 52be 38d8 20bd 3cdd 7c3d a1b1 a9bd
000000e0: f32f a8bd c664 d73d 1c02 853d c078 a5be
000000f0: f634 e13c 6a77 b43e 0d3c 00be f2b2 083e
00000100: f182 6b3c ff7e 043e 68e4 c6bb 8f24 79be
00000110: 163f bfbd 133e 463d 7ddf 5cbe a4ae d6bc
00000120: f797 153e 4df2 e63a 5cef 00be dbb1 8abe
00000130: 25ad ea3e 268c 34bd b625 983c f014 b0be
00000140: d8ff 623e c804 2abd 9b44 fd3d ea89 1d3e
00000150: 79dc 44be 4fc0 503d 34d1 623e 16ef 2bbe
00000160: 85b6 33be 9b1b 57bd 4740 b5bd 7f8e 4ebe
00000170: 0002 223b d0d3 48be 98a6 7abb 58f7 7e3e
00000180: deef 21bd 3021 a13e 5fbf 603e 6496 75bc
00000190: b4a2 66bc 6b26 50bd a522 49bd 03e8 cabd
000001a0: d7cd c0bd 931a 0bbb 3b82 e4bd 9526 7dbd
000001b0: 726d 85bd a2ad d43c 698b 553d 35b3 24be
000001c0: 589c ae3e 5183 89be 71a9 7c3e 1a85 c0be
000001d0: e86f 5a3e ccda 572f 9837 052e 21ba 9a2f
000001e0: 9a84 3cb0 2d62 14b1 47e1 03b1 d1da 5d2d
000001f0: 148e aeb0 7ff5 8cb0 8be8 d0ad f367 71af
00000200: 6480 b8ae 6e86 1830 18eb c72f da65 53af
00000210: cb31 a52f a9ce ea2f faa9 47ae 7c6f 503d
00000220: 8ea5 8fbd 51cf 90bb 2e21 9b3e 48e4 f2bd
00000230: d959 7dbe 7760 833e 1841 83bc a1d5 1cbe
00000240: 84b8 4cbd 2dfe 643d 37d6 3fbd 79e6 ae3e
00000250: 46a3 9fbe b3a7 76bb e777 893e b286 c7be
00000260: 1b71 053e d154 2a39 6c1a 6f3e eec1 6d3e
00000270: f7c5 67bd f568 84be 69f6 b7be 2a86 30bd
00000280: 6236 2b3e 25d8 073e 8e56 74bd fe3f febd
00000290: 8b28 273e c1df b63e e808 bebe 25a2 2abe
000002a0: ab03 95bd 6a7f bc3e 078a e8bd bda9 e732
000002b0: 0743 7bb3 d6d3 f4b3 ee0e fa34 d7fa 0935
000002c0: 901a 2635 87af ed34 9975 ad34 0919 1b35
000002d0: 52c8 88bd 2034 6b3e b2db 59bd fa79 39be
000002e0: bf97 803d 82e1 9a3e fb7c b8bd 134f 75be
000002f0: a3f7 273d 4838 23b1 4e77 22b1 c513 54b1
00000300: f5b8 2c31 83e0 5131 a0b0 e92f 4580 a431
00000310: 8c25 9c31 35bc 4331 1437 e83c e5d9 2abe
00000320: 68d3 febc c6b0 25bd 3ce8 98be 9d9b 53be
00000330: 4e8c ac3c 319c 4dbe 2e30 99bd a256 12b7
00000340: 1bed 9d36 82da 9c32 656b 0037 8c9e 9837
00000350: e23c a237 cf0e e235 32e0 b537 b4c5 a137
00000360: 6137 8c3d e09e 023d 7b6f 213d 516c 63be
00000370: ddf6 31be 5e9f 42be e93a 5bbe 8a04 f8bd
00000380: 45d5 f8bd 0ec3 dfbd a63f 7cbe 3895 46bd
00000390: af60 863e 87d2 3c3e 7004 d2bd 58e2 23be
000003a0: e5cf f23d 9183 ca3d 58b8 79af 2127 02ae
000003b0: 58ce 23ae 21bc 6eaf 4fd9 e62e b1bc 992f
000003c0: bb05 ebad 970d 0930 a2b4 0630 7773 fdbc
000003d0: 58ae 5c3e 358a 443c 5a63 323e d742 773d
000003e0: 6ad0 81be f93c 623e b294 1abe a4d8 8cbe
000003f0: 8819 22be f6a6 f83d f251 e13d 5984 e73d

blocks.0.dw_bn.weight f4 [40]
1.529453e-09 0.5708842 0.4199878 0.20331131 9.942438e-05 0.35008815 0.33060694 0.15926504
0.34306338 0.2601948 0.18827812 0.15338485 0.31394312 2.6755025e-09 6.2897826e-11 0.4296926
0.6186473 0.42103732 0.37902954 1.1708614e-06 0.24042928 5.263962e-09 0.3302117 4.5485805e-05
0.32924002 0.3610327 5.4258353e-10 0.25120604 0.3164403 0.3028564 0.17567761 0.17739056
0.28650028 0.3577432 0.39543906 -2.2371948e-08 0.33858374 0.4035948 0.20485686 0.35827106
00000000: d834 d230 7825 123f a408 d73e d730 503e
00000010: 0f82 d038 c13e b33e 5045 a93e 6016 233e
00000020: 01a6 af3e 4138 853e fbcb 403e eb10 1d3e
00000030: 27bd a03e f0db 3731 5450 8a2e ab00 dc3e
00000040: ab5f 1e3f 3492 d73e 2910 c23e 7e26 9d35
00000050: 1833 763e 4dde b431 8211 a93e 03c8 3e38
00000060: 2692 a83e 47d9 b83e ec24 1530 149e 803e
00000070: 7704 a23e fe0f 9b3e d5e4 333e dfa5 353e
00000080: 2ab0 923e 1e2a b73e fd76 ca3e 6f2c c0b2
00000090: d95a ad3e faa3 ce3e ffc5 513e 4e6f b73e

blocks.0.dw_bn.bias f4 [40]
-1.5836844e-09 -0.0036858667 -0.0137089025 0.30866492 -4.3310014e-05 0.015816007 -0.0038513755 0.3982854
0.015332762 0.21793129 0.29753488 0.38263157 -0.015174372 3.5403525e-09 -4.007223e-10 -0.032826863
-0.07516715 0.36322278 -0.030635532 -4.1005265e-07 0.15244876 4.1263723e-10 0.35197303 3.6604574e-06
0.30457532 0.013066836 -2.9266656e-10 0.18594958 0.03743289 0.00087812037 0.041399274 0.44073588
0.2866653 0.013310005 0.040616058 1.1293625e-07 0.059720818 -0.0362535 0.5144807 -0.0012163187
00000000: f1a8 d9b0 958e 71bb 4e9b 60bc 5409 9e3e
00000010: c6a7 35b8 9290 813c 5c67 7cbb 10ec cb3e
00000020: 4436 7b3c 6129 5f3e 7e56 983e 49e8 c33e
00000030: ee9d 78bc 8a4a 7331 a64c dcaf 7675 06bd
00000040: 3cf1 99bd 56f8 b93e 5ef7 fabc 3525 dcb4
00000050: 871b 1c3e 87d9 e22f cf35 b43e 2ea6 7536
00000060: 4cf1 9b3e 4816 563c 28e5 a0af 9169 3e3e
00000070: 3b53 193d a931 663a 4992 293d 22a8 e13e
00000080: cbc5 923e 3512 5a3c 065d 263d 5c87 f233
00000090: d19d 743d 8d7e 14bd 02b5 033f e26c 9fba

blocks.0.dw_bn.running_mean f4 [40]
0.0 -0.006066197 0.010618422 0.06399285 0.0 0.009822122 -0.003682379 -0.03356399
0.022005774 -0.014592294 0.05500815 -0.04415869 0.001080775 0.0 5.6432627e-20 -0.0052121356
-0.024493601 0.006458616 -0.01098813 0.0 0.0065704216 0.0 -0.25981933 0.0
-0.24174929 0.0032102037 0.0 -0.017801562 0.0026865215 0.002515023 0.014286047 -0.06469588
0.014187038 -0.007931343 0.023047011 0.0 -0.0917686 -0.0036261117 -0.05092322 0.021693686
00000000: 0000 0000 f3c6 c6bb e4f8 2d3c af0e 833d
00000010: 0000 0000 f7ec 203c 1154 71bb 657a 09bd
00000020: 7445 b43c 8414 6fbc 3a50 613d bedf 34bd
00000030: cba8 8d3a 0000 0000 6e3f 851f 90ca aabb
00000040: cea6 c8bc cca2 d33b 8f07 34bc 0000 0000
00000050: b14c d73b 0000 0000 0a07 85be 0000 0000
00000060: 208d 77be 4862 523b 0000 0000 95d4 91bc
00000070: 5a10 303b 16d3 243b 0610 6a3c 467f 84bd
00000080: c070 683c 77f2 01bc 16cd bc3c 0000 0000
00000090: 2df1 bbbd 0fa4 6dbb de94 50bd f5b6 b13c

blocks.0.dw_bn.running_var f4 [40]
0.0 0.026504366 0.00064276345 0.01034737 0.0 0.0041463934 0.003938207 0.0017837966
0.0051392233 0.0038323991 0.0072865314 0.0039709522 0.002130673 0.0 0.0 0.007809744
0.030653581 0.023589905 0.0046755653 0.0 0.0029131873 0.0 0.029380292 0.0
0.025122741 0.0053591686 0.0 0.00299035 0.00414218 0.0042312746 0.0010014164 0.006429241
0.011922235 0.004924798 0.01008404 0.0 0.0023339728 0.007243982 0.011425532 0.0041398774
00000000: 0000 0000 af1f d93c 207f 283a 0488 293c
00000010: 0000 0000 78de 873b 130c 813b 48ce e93a
00000020: ee66 a83b fd28 7b3b dbc3 ee3b c31e 823b
00000030: c3a2 0b3b 0000 0000 0000 0000 e2e8 ff3b
00000040: 381d fb3c 9e3f c13c 7c35 993b 0000 0000
00000050: 2ceb 3e3b 0000 0000 f0ae f03c 0000 0000
00000060: 35ce cd3c f79b af3b 0000 0000 bff9 433b
00000070: 20bb 873b 81a6 8a3b f541 833a 62ac d23b
00000080: 7a55 433c 3360 a13b 8837 253c 0000 0000
00000090: 91f5 183b ed5e ed3b 2832 3b3c cfa7 873b

blocks.0.pw.weight f4 [80, 40, 1, 1]
-9.0235247e-10 -0.040344246 -0.03268251 -0.22128305 -4.738458e-05 0.009958223 0.006461014 -0.15569937
0.04120611 0.02669886 -0.024546972 -0.28206262 0.0038770132 -5.522947e-10 6.405211e-11 -0.024898017
-0.01834467 0.013651064 0.03896883 -9.928698e-08 0.0031690781 -1.1418771e-10 -0.026310781 1.8967553e-06
0.033342987 0.04336434 2.2249524e-10 0.23208919 -0.030666623 0.038267955 -0.15975007 -0.39859983
0.2356829 0.005789054 -0.022273825 -5.8453338e-08 -0.12486059 -0.013844557 0.05831843 0.013374589
-3.0138358e-10 0.042325977 -0.06846349 0.011118938 -8.970505e-07 -0.039393935 -0.10963466 0.039649818
-0.064445354 -0.25080284 0.04792848 0.0244776 -0.021055508 1.922766e-10 -1.2112826e-10 -0.044450413
0.057667222 0.3034121 -0.092654586 -4.28575e-07 -0.03194182 1.07871725e-10 -0.1893152 -7.5207645e-06
-0.025667522 0.07289339 2.2860482e-10 0.07909445 -0.006848389 -0.050929923 0.06054601 0.0019328949
-0.15811831 0.07062274 0.028290667 7.646917e-09 0.07761361 -0.06167948 -0.032331202 -0.085190326
1.3699335e-11 0.14551203 0.26517254 0.03999847 6.647372e-05 -0.14115968 -0.021792768 -0.028237024
-0.12249891 0.11225411 0.016033063 -0.023929508 -0.22156125 -3.6464293e-10 -2.019919e-11 0.12890875
0.16400786 0.015744304 -0.063375235 6.98974e-07 0.19520123 6.0474736e-10 0.10573894 2.7056198e-05
-0.03418454 0.034629703 2.2769696e-10 0.02172931 0.06553055 -0.23580433 0.09211258 -0.116025254
0.14380363 0.034957904 0.17304233 -1.0047557e-08 0.18809575 0.046842005 0.053957798 -0.071352765
-3.345431e-10 -0.17552249 -0.1832889 0.026625156 -4.8092257e-05 -0.18550633 -0.08360094 -0.07142118
-0.1741484 0.007895989 -0.029615 0.06444448 -0.14123806 9.131473e-10 -3.0037964e-10 -0.12650722
-0.159726 -0.038236525 -0.12022068 -5.4277456e-07 -0.040779795 9.41317e-10 0.0022890954 -1.4703843e-05
0.020307885 -0.0733952 2.0348605e-10 -0.026394952 0.011892261 -0.13846146 -0.120339505 0.015935611
0.014958061 -0.099750884 -0.1773201 1.2630199e-08 -0.0499072 -0.15185459 -0.053800736 -0.1694187
6.6529365e-11 -0.08326102 -0.08238065 0.02480465 -1.4894042e-05 0.24698342 -0.23930736 0.06568162
-0.14568567 -0.11997451 0.0808024 0.08011059 0.12425819 -1.4735183e-09 -1.6905274e-11 -0.07917731
0.025751436 -0.001992555 -0.25068143 3.8283684e-08 -0.058365002 -1.6059365e-10 0.024970297 -4.1217754e-06
-0.06107258 -0.17477642 5.021401e-10 0.034879938 0.10164836 -0.04756846 0.093663186 0.015206104
0.10594434 -0.119675994 0.08093504 2.1896662e-08 -0.022676773 0.22858213 0.064340495 0.2679666
-6.493709e-11 0.29265702 -0.16085342 0.06795015 -1.3296932e-05 0.066294335 0.061467502 0.04953984
-0.01897518 0.008478104 0.0035319556 0.1744635 0.13831209 -5.9052443e-11 -2.6545441e-11 0.10814021
0.2586609 -0.034263536 -0.055287085 -2.3186428e-07 0.061941706 -3.5222697e-10 -0.18531097 -7.691172e-06
0.058656164 -0.13089837 -1.323063e-11 -0.09457088 -0.18508258 0.085464016 -0.117393 0.07357176
0.10540695 -0.1664694 0.0440412 7.534055e-08 -0.1139002 -0.14792173 0.0034190787 -0.021705475
-5.607163e-10 -0.12378403 -0.017769152 0.0085369805 -1.5201329e-05 0.27345058 -0.21423142 0.015574549
-0.3206863 -0.15766196 0.04069237 -0.0391328 0.16446295 -6.2377675e-10 -1.5163121e-10 -0.033747453
00000000: 6909 78b0 0240 25bd 18de 05bd 0698 62be
00000010: cebe 46b8 d127 233c eab6 d33b a86f 1fbe
00000020: bdc7 283d 91b7 da3c bb16 c9bc 836a 90be
00000030: 7d15 7e3b 49d0 17b0 22da 8c2e edf6 cbbc
00000040: 9047 96bc b6a8 5f3c c89d 1f3d 9837 d5b3
00000050: 4fb0 4f3b f719 fbae b589 d7bc 0494 fe35
00000060: a892 083d ce9e 313d d8a2 742f caa8 6d3e
00000070: 9238 fbbc dcbe 1c3d 8695 23be 4715 ccbe
00000080: dc56 713e 1bb2 bd3b 9977 b6bc 200e 7bb3
00000090: e9b6 ffbd 48d4 62bc 4edf 6e3d 1821 5b3c
000000a0: f8af a5af 015e 2d3d 9636 8cbd 352c 363c
000000b0: d7cc 70b5 895b 21bd 2388 e0bd d967 223d
000000c0: edfb 83bd 3b69 80be a750 443d 3f85 c83c
000000d0: 9a7c acbc 0d69 532f 932e 05af a311 36bd
000000e0: 7734 6c3d d558 9b3e b0c1 bdbd e616 e6b4
000000f0: 6dd5 02bd 6236 ed2e d8db 41be e05a fcb6
00000100: b244 d2bc 2149 953d 895a 7b2f 45fc a13d
00000110: 7368 e0bb e59b 50bd 18ff 773d 3159 fd3a
00000120: c4e9 21be a8a2 903d d4c1 e73c 7f5f 0332
00000130: e2f3 9e3d 9fa3 7cbd b96d 04bd 4478 aebd
00000140: 5200 712d 1b01 153e b2c4 873e 70d5 233d
00000150: cf67 8b38 2a8c 10be bf86 b2bc 5551 e7bc
00000160: b5e0 fabd 7ce5 e53d c557 833c d107 c4bc
00000170: f4e0 62be ee76 c8af 88ac b1ad a800 043e
00000180: adf1 273e 33fa 803c e0ca 81bd 21a1 3b35
00000190: d5e2 473e 503b 2630 a88d d83d bef6 e237
000001a0: 1705 0cbd e0d7 0d3d ff5a 7a2f aa01 b23c
000001b0: e234 863d b176 71be 85a5 bc3d a69e edbd
000001c0: 4241 133e 0530 0f3d 0232 313e 9f9d 2cb2
000001d0: 2c9c 403e 67dd 3f3d da02 5d3d 6621 92bd
000001e0: c1ea b7af 2bbc 33be 16b0 3bbe 001d da3c
000001f0: abb6 49b8 5ff5 3dbe f836 abbd 4545 92bd
00000200: f553 32be 2e5e 013c 289b f2bc 78fb 833d
00000210: b6a0 10be 0701 7b30 ad22 a5af 1c8b 01be
00000220: 368f 23be e79d 1cbd 4336 f6bd 2fb3 11b5
00000230: b708 27bd a65f 8130 a604 163b 86b0 76b7
00000240: b95c a63c 3950 96bd 3bbc 5f2f 3a3a d8bc
00000250: c2d7 423c d7c8 0dbe 8f74 f6bd 668b 823c
00000260: a812 753c 314a ccbd 6693 35be 34fc 5832
00000270: 7e6b 4cbd c57f 1bbe 295e 5cbd 187c 2dbe
00000280: b44c 922e c184 aabd 30b7 a8bd 1f33 cb3c
00000290: 6ce1 79b7 39e9 7c3e fd0c 75be 1684 863d
000002a0: a02e 15be 32b5 f5bd bb7b a53d 0511 a43d
000002b0: 147b fe3d d184 cab0 4bb3 94ad b727 a2bd
000002c0: adf4 d23c 8795 02bb 5159 80be 5b6d 2433
000002d0: 2410 6fbd 1893 30af 828e cc3c c84d 8ab6
000002e0: 3e27 7abd 97f8 32be f806 0a30 44de 0e3d
000002f0: 042d d03d 25d7 42bd 7cd2 bf3d 0623 793c
00000300: 59f9 d83d b018 f5bd 45c1 a53d 4517 bc32
00000310: a4c4 b9bc 6f11 6a3e f3c4 833d eb32 893e
00000320: 55cc 8eae 24d7 953e c2b6 24be 7329 8b3d
00000330: e315 5fb7 53c5 873d 59c5 7b3d 4aea 4a3d
00000340: d671 9bbc bfe7 0a3c 6278 673b 8fa6 323e
00000350: afa1 0d3e 92db 81ae 057f e9ad 9d78 dd3d
00000360: 346f 843e ec57 0cbd b674 62bd 5ef6 78b4
00000370: 96b6 7d3d 8aa3 c1af 29c2 3dbe 5509 01b7
00000380: 7241 703d 390a 06be 76c1 68ad 61ae c1bd
00000390: 4a86 3dbe c207 af3d be6b f0bd caac 963d
000003a0: 99df d73d f476 2abe 8c64 343d e8ca a133
000003b0: 8244 e9bd cb78 17be 9f12 603b aecf b1bc
000003c0: e720 1ab0 7b82 fdbd 9d90 91bc b1de 0b3c
000003d0: 3609 7fb7 b701 8c3e 7b5f 5bbe 652c 7f3c
000003e0: ff30 a4be 2372 21be 0bad 263d b749 20bd
000003f0: fa68 283e 6376 2bb0 64b8 26af c53a 0abd

blocks.0.pw_bn.weight f4 [80]
0.18485095 0.11450213 0.20765078 0.14420171 0.12226179 0.17282571 0.2935768 2.7579233e-08
0.1491185 2.8461521e-11 0.10914262 -0.00037337915 0.10911508 0.17969355 0.0005650753 0.09060173
0.28112474 0.22154765 0.00013948994 0.11124194 0.18730578 0.18739158 0.119927086 0.3542047
0.22911692 -2.2119218e-10 0.16865212 0.16890979 3.829031e-10 0.2860829 -0.10600794 0.21112348
-4.801881e-10 0.1789995 0.04398211 -2.529858e-07 0.22453511 -1.0404798e-08 0.32577103 0.12476616
0.13556165 0.1412878 0.1766854 2.2221474e-08 0.11243385 0.24426743 -6.209587e-08 0.13447666
0.1497071 0.1575327 0.19671722 0.16558954 -0.00017116989 0.25272804 0.08770326 0.10669408
0.15580438 0.1912971 4.9982003e-07 0.24981542 0.216673 0.18513441 0.13711795 0.19581091
0.12050184 0.22798127 -3.6916362e-10 0.2110663 0.1344168 6.4172986e-11 -1.02858884e-07 0.25169468
-9.833086e-11 0.087093 0.22765915 1.7623086e-06 -2.1232061e-08 0.17887777 0.2153595 0.118307106
00000000: 9149 3d3e 1880 ea3d 68a2 543e 9da9 133e
00000010: 6464 fa3d 39f9 303e b34f 963e 60e7 ec32
00000020: 85b2 183e a659 fa2d 2a86 df3d 1ac2 c3b9
00000030: ba77 df3d 9601 383e 9021 143a 668d b93d
00000040: 95ef 8f3e 63dd 623e 0c44 1239 d0d2 e33d
00000050: 16cd 3f3e 94e3 3f3e 559c f53d 525a b53e
00000060: a09d 6a3e 1034 73af 24b3 2c3e b0f6 2c3e
00000070: d280 d22f 7579 923e b11a d9bd c130 583e
00000080: 3cfe 03b0 a54b 373e 9626 343d 1bd2 87b4
00000090: 88ec 653e c9c0 32b2 76cb a63e 6785 ff3d
000000a0: acd0 0a3e c0ad 103e 04ed 343e 8ae1 be32
000000b0: b843 e63d 3e21 7a3e 9159 85b3 40b4 093e
000000c0: d14c 193e 4150 213e 3d70 493e 4e90 293e
000000d0: 117c 33b9 9265 813e c49d b33d 6d82 da3d
000000e0: 2f8b 1f3e 63e3 433e 5f2b 0635 9dcf 7f3e
000000f0: 87df 5d3e e093 3d3e a668 0c3e a882 483e
00000100: abc9 f63d ec73 693e 29f3 caaf c421 583e
00000110: 8fa4 093e 2e1e 8d2e 45e3 dcb3 20de 803e
00000120: 5a3b d8ae d15d b23d 7b1f 693e 7688 ec35
00000130: cc61 b6b2 bc2b 373e 3387 5c3e ff4a f23d

blocks.0.pw_bn.bias f4 [80]
0.15577324 0.005407286 0.1679305 0.105668895 0.14870599 0.20273075 -0.08330767 -3.1741337e-07
-0.011029762 -6.290878e-10 0.0525137 -0.010676427 0.107830994 0.17320494 -0.009567723 0.11472885
0.052170683 0.037233923 -0.0066171945 0.021974118 0.20682152 0.12289072 0.041382004 -0.1524652
0.13768968 -1.8294834e-08 -0.03989038 0.22823912 -4.6270143e-09 -0.16815859 0.18760778 0.172423
-6.4543353e-09 0.051098853 0.07892009 -7.297695e-07 0.06025576 -2.417862e-07 0.04823727 0.0071949097
0.04848857 0.0773388 0.21982975 -1.5163373e-07 0.15485068 -0.03267487 -6.413118e-07 0.101273224
0.083040595 0.15344147 0.12664628 -0.032919385 -0.0027424132 -0.07357174 0.042083517 0.10007383
0.054079067 -0.037938748 -2.4763438e-06 -0.03350778 -0.006508179 0.14556654 0.07329804 0.15127267
0.1743426 -0.07713426 -2.604158e-08 0.23677233 0.053502616 -1.6680588e-08 -3.0996227e-07 0.1393298
-8.1311974e-10 0.103838004 0.029895954 -1.2387274e-05 -5.4014475e-07 0.07588867 0.11083707 0.12485549
00000000: 0583 1f3e 9a2f b13b f9f5 2b3e ef68 d83d
00000010: 6246 183e a698 4f3e 369d aabd f668 aab4
00000020: 2db6 34bc 1eec 2cb0 9b18 573d 2eec 2ebc
00000030: 7fd6 dc3d a35c 313e f0c1 1cbc f6f6 ea3d
00000040: edb0 553d 9982 183d 0dd5 d8bb 1103 b43c
00000050: 05c9 533e 21ae fb3d 2d80 293d d61f 1cbe
00000060: 86fe 0c3e c426 9db2 1864 23bd 84b7 693e
00000070: a6fb 9eb1 c431 2cbe 411c 403e a88f 303e
00000080: efc4 ddb1 084d 513d dba0 a13d 61e5 43b5
00000090: bece 763d d8ce 81b4 7294 453d 47c3 eb3b
000000a0: f39b 463d ce63 9e3d 0d1b 613e c3d0 22b4
000000b0: 2d91 1e3e 16d6 05bd 9c26 2cb5 5668 cf3d
000000c0: 3011 aa3d c31f 1d3e 90af 013e 7ad6 06bd
000000d0: 0fba 33bb c8ac 96bd c45f 2c3d 82f3 cc3d
000000e0: 0382 5d3d a965 1bbd 432f 26b6 743f 09bd
000000f0: 9042 d5bb 650f 153e 481d 963d 39e7 1a3e
00000100: de86 323e 91f8 9dbd 0ab2 dfb2 7274 723e
00000110: 8f25 5b3d 0049 8fb2 e468 a6b4 79ac 0e3e
00000120: 3782 5fb0 05a9 d43d 5ce8 f43c f0d2 4fb7
00000130: 77fe 10b5 856b 9b3d 8cfe e23d 3cb4 ff3d

blocks.0.pw_bn.running_mean f4 [80]
-0.2944176 -0.04939887 0.21078353 -0.31640834 0.103400335 0.09839791 -0.11606352 -1.2651455e-07
-0.057224046 -1.0346735e-09 0.21608251 0.0009419691 0.09937532 -0.06756415 -0.0020361487 -0.04969501
-0.04277003 0.1701077 -0.0009646749 -0.010486679 0.15907836 0.36178386 0.0017646626 -0.33965117
-0.13005391 -3.8853787e-09 -0.40933263 0.074227616 -6.135699e-10 0.18265285 -0.07479407 0.34224954
1.1446344e-08 -0.34911203 0.15086935 5.1350575e-08 0.14920925 -9.259537e-08 0.20010711 -0.13667645
0.033238232 -0.17680813 -0.01774223 -9.898059e-08 0.031750534 -0.122824855 5.7496322e-08 -0.24971747
-0.12963659 0.040198196 -0.31433022 -0.39870092 0.002109756 0.27870607 0.19933578 0.13660505
-0.001852655 -0.034756504 -2.5967431e-06 0.027476087 -0.04755925 -0.20446905 0.26715913 0.16736734
0.1321693 0.15523756 -1.9743204e-08 -0.22058484 0.19737045 3.0421947e-09 8.2948674e-08 -0.15503336
6.0249367e-10 0.12786722 -0.22216672 -9.2108985e-06 2.7727193e-08 -0.19979645 0.018912138 -0.34681183
00000000: e7bd 96be 7856 4abd a3d7 573e 4600 a2be
00000010: 8ec3 d33d d884 c93d b6b2 edbd 0ed8 07b4
00000020: c363 6abd 5634 8eb0 bc44 5d3e 7aee 763a
00000030: 4a85 cb3d 135f 8abd e870 05bb ff8c 4bbd
00000040: a12f 2fbd b730 2e3e 3de2 7cba 52d0 2bbc
00000050: 70e5 223e bc3b b93e 404c e73a c2e6 adbe
00000060: da2c 05be 2780 85b1 0c94 d1be a604 983d
00000070: 25a8 28b0 5909 3b3e a22d 99bd 553b af3e
00000080: 8ea5 4432 d0be b2be 7f7d 1a3e 8e8c 5c33
00000090: 4fca 183e d8d8 c6b3 e1e8 4c3e e9f4 0bbe
000000a0: d024 083d 310d 35be 2758 91bc 288f d4b3
000000b0: d90c 023d 998b fbbd e0f1 7633 f0b5 7fbe
000000c0: 74bf 04be dda6 243d e4ef a0be 8722 ccbe
000000d0: d543 0a3b 90b2 8e3e ae1e 4c3e 32e2 0b3e
000000e0: c9d4 f2ba d65c 0ebd b543 2eb6 8815 e13c
000000f0: 7dcd 42bd 5660 51be 15c9 883e 5862 2b3e
00000100: 6457 073e 98f6 1e3e c497 a9b2 fee0 61be
00000110: 7b1b 4a3e db0e 5131 8421 b233 11c1 1ebe
00000120: b99c 2530 a0ef 023e ac7f 63be 8288 1ab7
00000130: be2c ee32 7197 4cbe a1ed 9a3c 5291 b1be

blocks.0.pw_bn.running_var f4 [80]
0.025142908 0.018874649 0.037853494 0.042752296 0.01152856 0.03121738 0.021193098 1.9946316e-14
0.026469868 8.904404e-20 0.015091788 2.4680172e-05 0.011971756 0.035432685 1.4597392e-05 0.014738312
0.02645437 0.036600526 4.0328564e-06 0.019795015 0.04251852 0.014658049 0.01939938 0.11042068
0.021048317 3.952042e-17 0.02552511 0.019942466 7.5875375e-18 0.018412333 0.017164325 0.021498414
2.3192285e-17 0.058142744 0.010527044 1.0778091e-13 0.014268865 2.3257983e-14 0.048586644 0.029174952
0.012095707 0.042356275 0.032126244 7.412549e-15 0.046766482 0.014951798 5.6128337e-14 0.037671633
0.03338808 0.024270512 0.02350681 0.024235666 3.6506208e-06 0.023987696 0.012398035 0.014666536
0.023996146 0.013067201 2.565166e-12 0.023073433 0.018538618 0.02252223 0.026497839 0.028235057
0.018456638 0.022403294 1.5611104e-16 0.034320917 0.024492707 1.7070743e-16 5.2136593e-15 0.025827441
2.6629123e-19 0.012389586 0.052826595 6.7256e-11 5.6023064e-14 0.022392944 0.029897925 0.041427083
00000000: 80f8 cd3c 029f 9a3c 440c 1b3d 081d 2f3d
00000010: 49e2 3c3c 97bb ff3c 269d ad3c 13a9 b328
00000020: 56d7 d83c d23f d21f 8c43 773c 4408 cf37
00000030: 2f25 443c dd21 113d 52e7 7437 f678 713c
00000040: d6b6 d83c 6fea 153d f951 8736 2829 a23c
00000050: e627 2e3d 5028 703c 73eb 9e3c 3d24 e23d
00000060: 856d ac3c 7a41 3624 091a d13c 625e a33c
00000070: 22f7 0b23 76d5 963c 339c 8c3c 711d b03c
00000080: 3ce9 d523 1627 6e3d 9f79 2c3c 77b3 f229
00000090: f5c7 693c 427d d128 ca02 473d 4f00 ef3c
000000a0: 122d 463c c67d 2d3d cf96 033d 5988 0528
000000b0: 368e 3f3d 63f8 743c 91c7 7c29 924d 1a3d
000000c0: f0c1 083d f4d2 c63c 5b91 c03c e089 c63c
000000d0: 30fd 7436 d881 c43c 2121 4b3c e94b 703c
000000e0: 9193 c43c d017 563c ec81 342c 7f04 bd3c
000000f0: 4dde 973c 8a80 b83c ff11 d93c 354d e73c
00000100: 6032 973c 1d87 b73c d9fb 3325 1794 0c3d
00000110: eea4 c83c f1cf 4425 85d7 bb27 1294 d33c
00000120: cb30 9d20 b1fd 4a3c b360 583d c3e5 932e
00000130: 324e 7c29 6871 b73c 7eec f43c 72af 293d

blocks.1.dw.weight f4 [80, 1, 3, 3]
-0.16921408 -0.10725025 0.08604193 -0.26252446 0.011350982 0.28959972 -0.071142174 0.040687796
0.18407547 -0.05855619 -0.075023964 -0.094913945 0.064996555 0.27473214 0.03136452 -0.015874969
-0.053948004 -0.0445184 0.093433954 0.17530024 -0.04342354 0.02198019 0.10819726 -0.13052651
0.07741685 0.18233305 -0.043360516 0.07100205 0.44464302 0.13310634 0.018024173 -0.2294039
-0.124145135 0.033836097 -0.13918622 -0.03661404 0.12910877 0.1078688 -0.21007274 0.2897496
0.059225604 -0.2360355 -0.11525398 -0.020334117 0.15451711 -0.10829504 -0.19421275 -0.0728451
-0.025684781 -0.1081546 -0.101558715 0.10550073 0.22369024 0.15830764 -0.04861817 -0.06662165
0.01818184 -0.0066850525 0.11320756 0.22957897 0.028660232 0.1752808 0.08073349 9.751956e-12
2.8802214e-11 -6.6994806e-11 2.2476011e-10 3.5684553e-10 7.7884706e-11 -4.669834e-12 1.5065502e-10 2.4675921e-11
0.055071235 -0.047879882 -0.07873796 0.26091728 0.045892924 0.0026806986 -0.17035604 0.096560895
0.24204163 4.123532e-10 -3.6131487e-11 -3.673147e-10 2.56082e-10 1.9109882e-11 -5.0313514e-10 1.5228487e-10
-2.2672317e-10 -7.535331e-10 -0.0059071677 -0.18495737 0.057727274 -0.1690499 0.10887668 0.12738428
0.032203652 0.1433706 -0.16746132 0.00015553372 -0.0020387345 -0.003695153 -0.0018987 -0.0022455927
-0.002032739 -0.002992665 -0.0022892319 -0.002707994 0.13179116 0.11828217 -0.17207329 0.20293985
-0.05409668 -0.17833231 -0.04453505 -0.16935134 -0.08598661 0.0073594763 -0.028276252 -0.020255
-0.10005066 -0.117763065 -0.1573081 -0.03878653 -0.13262253 -0.16373381 -0.0013462926 -0.00037451996
0.0013794857 0.00523135 0.0026898463 -0.006690936 -0.0018111626 -0.0013593832 -0.00018555768 0.061243746
0.056368325 -0.09863102 -0.22271448 0.13555613 0.22763209 0.14172736 -0.1207186 -0.036431283
-0.12066935 -0.24301326 -0.12902139 -0.0031148118 0.13200106 -0.049652092 0.057253867 0.19986475
0.11124171 -0.024294011 -0.02055935 -0.10514323 -0.06470541 -0.07625856 -0.09968038 -0.017638637
-0.10717109 -0.011695497 -0.00049894815 -0.001959039 -0.0011087089 -0.0015924958 0.0017232595 0.0009571388
-0.0011925133 0.0038004625 -0.0016845221 -0.011294555 -0.006887434 0.013266827 -0.277913 0.10617164
0.17832957 0.08434371 0.046918195 -0.13442591 0.07959039 0.24912587 0.16537789 -0.024356954
-0.100278296 0.09156013 -0.070101224 -0.47383255 -0.0995971 -0.187236 0.016905902 0.15641941
-0.2521194 0.01129348 0.24492824 -0.14378077 -0.03223452 0.03419874 0.15230723 -0.23156793
-0.022339055 -0.04314436 0.021554286 -0.009440199 -0.10273765 0.2140707 0.0006956066 0.013353767
-0.2459194 -0.086331055 -0.018087102 0.07550003 0.2508684 -0.13281927 0.25575837 0.14439805
-0.15449508 -0.041597687 0.079971306 -0.269477 0.24599078 0.21223065 -0.07114734 0.16888435
-0.05399029 7.617738e-09 1.8257585e-09 -1.8765218e-09 4.7001802e-09 2.7450928e-10 -4.043358e-09 2.908616e-09
1.052428e-09 -6.574295e-09 -0.12455888 -0.08077612 0.06158369 -0.014088528 0.06509678 0.24322286
0.19111279 0.140674 -0.13359986 -0.17454259 -0.0712114 0.14957948 -0.26119712 -0.030828552
0.25885653 -0.059541803 0.028505763 0.18500552 1.1077986e-09 7.839125e-10 2.5351135e-09 -1.2055017e-10
00000000: 7546 2dbe 05a6 dbbd c036 b03d 9b69 86be
00000010: 78f9 393c 6a46 943e fdb2 91bd 3fa8 263d
00000020: 487e 3c3e 9ed8 6fbd 2aa6 99bd 3e62 c2bd
00000030: ea1c 853d b1a9 8c3e 1578 003d 390c 82bc
00000040: 95f8 5cbd ed58 36bd 4d5a bf3d e881 333e
00000050: e2dc 31bd cd0f b43c 8696 dd3d bea8 05be
00000060: ba8c 9e3d 84b5 3a3e cc9a 31bd 8669 913d
00000070: 40a8 e33e 074d 083e 6ea7 933c dbe8 6abe
00000080: ce3f febd b897 0a3d d586 0ebe 9bf8 15bd
00000090: 1735 043e 51ea dc3d 4f1d 57be 0f5a 943e
000000a0: 8c96 723d 4ab3 71be 470a ecbd bc93 a6bc
000000b0: bc39 1e3e cac9 ddbd b5df 46be d02f 95bd
000000c0: e468 d2bc 2980 ddbd 04fe cfbd c410 d83d
000000d0: 0e0f 653e 661b 223e d923 47bd ee70 88bd
000000e0: 15f2 943c 490e dbbb 5dd9 e73d c016 6b3e
000000f0: ddc8 ea3c cf7c 333e 9a57 a53d e88e 2b2d
00000100: d258 fd2d b952 93ae 5920 772f 8b2d c42f
00000110: 3145 ab2e 204e a4ac 9ea5 252f 3c0d d92d
00000120: 6092 613d b21d 44bd 5e41 a1bd f396 853e
00000130: 38fa 3b3d a9ae 2f3b d071 2ebe b8c1 c53d
00000140: c3d9 773e 8eb1 e22f 70e8 1eae f3ee c9af
00000150: 56c8 8c2f a117 a82d fd4c 0ab0 6170 272f
00000160: e648 79af 2e21 4fb0 ea90 c1bb 7765 3dbe
00000170: 6f73 6c3d 6b1b 2dbe bdfa de3d 0671 023e
00000180: fae7 033d becf 123e fb7a 2bbe c416 2339
00000190: 4a9c 05bb 612a 72bb cddd f8ba cb2a 13bb
000001a0: b437 05bb 9620 44bb f006 16bb 9a78 31bb
000001b0: 43f4 063e ec3d f23d fb33 30be 77cf 4f3e
000001c0: 7b94 5dbd bf9c 36be 626a 36bd 706a 2dbe
000001d0: bf19 b0bd c327 f13b 99a3 e7bc d0ed a5bc
000001e0: 5ce7 ccbd c32d f1bd 6015 21be a0de 1ebd
000001f0: 33ce 07be d6a9 27be 1576 b0ba 385b c4b9
00000200: dccf b43a bf6b ab3b 2248 303b a43f dbbb
00000210: 8864 edba 552d b2ba 4392 42b9 b9da 7a3d
00000220: 79e2 663d 0fff c9bd 440f 64be 3acf 0a3e
00000230: 6318 693e fa20 113e 503b f7bd f838 15bd
00000240: 7e21 f7bd 78d8 78be 2f1e 04be df21 4cbb
00000250: 492b 073e fe5f 4bbd 0883 6a3d 58a9 4c3e
00000260: b2d2 e33d 3c04 c7bc 156c a8bc 5555 d7bd
00000270: 4584 84bd 732d 9cbd 3a25 ccbd e77e 90bc
00000280: 847c dbbd 789e 3fbc d8cb 02ba 3863 00bb
00000290: 1952 91ba 4bbb d0ba fede e13a 7fe8 7a3a
000002a0: 1b4e 9cba 2e11 793b 2fcb dcba cc0c 39bc
000002b0: fcaf e1bb 1b5d 593c 9d4a 8ebe 8470 d93d
000002c0: 079c 363e 65bc ac3d 4b2d 403d f2a6 09be
000002d0: 4900 a33d da1a 7f3e d258 293e 3c88 c7bc
000002e0: b55e cdbd e183 bb3d 3b91 8fbd 2e9a f2be
000002f0: 90f9 cbbd cbba 3fbe 3f7e 8a3c 692c 203e
00000300: cb15 81be 4a08 393c 78ce 7a3e 443b 13be
00000310: 5808 04bd fa13 0c3d 6df6 1b3e 2520 6dbe
00000320: 6500 b7bc 24b8 30bd 9d92 b03c 10ab 1abc
00000330: 1e68 d2bd 5935 5b3e 5e59 363a c2c9 5a3c
00000340: 4cd2 7bbe 56ce b0bd 672b 94bc c29f 9a3d
00000350: d371 803e c601 08be c3f2 823e 15dd 133e
00000360: f533 1ebe 5662 2abd ffc7 a33d e4f8 89be
00000370: 02e5 7b3e fe52 593e b2b5 91bd 05f0 2c3e
00000380: ec24 5dbd 2bdf 0232 2bee fa30 1ff4 00b1
00000390: 397f a131 bfe9 962f c1ed 8ab1 eae0 4731
000003a0: 05a5 9030 1ce4 e1b1 ba18 ffbd f36d a5bd
000003b0: 2e3f 7c3d 92d3 66bc 7651 853d 6a0f 793e
000003c0: 12b3 433e d80c 103e 67ce 08be 4bbb 32be
000003d0: 48d7 91bd 5d2b 193e a1bb 85be 298c fcbc
000003e0: d888 843e 1be2 73bd eb84 e93c 1672 3d3e
000003f0: 3341 9830 f07a 5730 3036 2e31 db8b 04af

blocks.1.dw_bn.weight f4 [80]
0.30879036 0.2836321 0.33226687 0.3510329 0.20052499 0.28852278 0.17631592 3.3497448e-11
0.23777057 2.911565e-10 0.2676 0.008213026 0.2925876 0.35900095 0.0048269443 0.24159604
0.30474833 0.1867639 0.0027724376 0.25161478 0.3613188 0.2855056 0.22337268 0.20385993
0.2674264 1.4585054e-08 0.22721301 0.2759078 4.0381325e-09 0.24118306 0.29381314 0.30906305
2.3944762e-09 0.301548 0.2443128 5.001876e-07 0.1943623 1.8961548e-07 0.41523597 0.25452676
0.20600988 0.24122085 0.29462865 1.5059959e-07 0.30696353 0.24442571 3.6613457e-07 0.30615854
0.27506483 0.37241685 0.32756287 0.22998878 0.0030171366 0.2259728 0.26800036 0.30575666
0.2653108 0.19487782 1.8279385e-06 0.23922236 0.21442854 0.30246365 0.32899565 0.35871765
0.29138675 0.16700146 2.056214e-08 0.36611792 0.3087884 1.6542037e-08 3.1744057e-07 0.2827726
1.1108835e-09 0.21856125 0.38842347 1.1642443e-05 2.6963207e-07 0.23577642 0.3003653 0.31254378
00000000: c519 9e3e 3a38 913e e21e aa3e 96ba b33e
00000010: 6c56 4d3e 42b9 933e 298c 343e c652 132e
00000020: 217a 733e a210 a02f de02 893e ee8f 063c
00000030: 0bce 953e f9ce b73e 582b 9e3b f464 773e
00000040: f907 9c3e 093f 3f3e c9b1 353b a7d3 803e
00000050: c7fe b83e ca2d 923e cfbb 643e a8c0 503e
00000060: 1dec 883e bf91 7a32 87aa 683e ca43 8d3e
00000070: cabf 8a31 b1f8 763e ad6e 963e 833d 9e3e
00000080: 128c 2431 8064 9a3e 222d 7a3e a144 0635
00000090: e906 473e 1b99 4b34 cf99 d43e 5551 823e
000000a0: 41f4 523e 9902 773e 91d9 963e 80b4 2134
000000b0: 532a 9d3e bc4a 7a3e 2791 c434 d0c0 9c3e
000000c0: 4cd5 8c3e 6cad be3e 52b6 a73e 2e82 6b3e
000000d0: 27bb 453b 6a65 673e 5837 893e 238c 9c3e
000000e0: d1d6 873e 0d8e 473e 7d57 f535 b5f6 743e
000000f0: 2893 5b3e 84dc 9a3e 1e72 a83e d7a9 b73e
00000100: a530 953e 6e02 2b3e a0a0 b032 cf73 bb3e
00000110: 8319 9e3e 5318 8e32 b36c aa34 92c7 903e
00000120: bdad 9830 85ce 5f3e 71df c63e e953 4337
00000130: f3c1 9034 606f 713e 7bc9 993e bd05 a03e

blocks.1.dw_bn.bias f4 [80]
0.004386601 0.0016659892 0.013653478 -0.07083936 0.20545825 0.011850519 0.03220949 -3.1617522e-10
-0.030844819 1.192471e-10 -0.0412459 0.0039951378 -0.014965792 0.08630757 -0.0019213401 -0.019712763
-0.114923865 0.23111293 0.0008121083 -0.01803596 0.0046093264 -0.052653022 -0.02379059 0.08711245
-0.040701963 -4.315333e-09 -0.052290585 -0.016094083 -7.2176215e-10 -0.19699447 -0.05098671 -0.07070781
-7.998972e-09 -0.035743162 -0.054497957 -2.0304215e-07 0.25079522 2.1273044e-07 -0.04491021 -0.06396408
-0.03602378 0.24779688 0.027368987 2.6445514e-08 -0.07098413 -0.052150756 3.7760077e-07 0.064025804
0.015312728 0.043575592 -0.010078804 0.0039647445 -0.0015491309 -0.022994127 -0.07160154 -0.06661152
0.047946718 0.018833308 -1.2817433e-06 -0.026830345 -0.058361564 -0.02467365 0.0039371345 -0.0715011
0.047648367 -0.043409873 -3.0268916e-09 -0.041574318 0.038812824 -5.3025198e-09 -2.535225e-08 -0.030131303
1.3372309e-11 -0.0074286433 -0.13785158 -5.701627e-06 -7.5390716e-08 -0.010755509 -0.0941224 0.009602589
00000000: 7abd 8f3b 525d da3a d6b2 5f3c 3a14 91bd
00000010: a663 523e ae28 423c 19ee 033d b5d1 adaf
00000020: 46ae fcbc 131d 032f 76f1 28bd a5e9 823b
00000030: 1533 75bc 06c2 b03d 7ad5 fbba a97c a1bc
00000040: 345d ebbd dea8 6c3e aae3 543a 26c0 93bc
00000050: d509 973b b2aa 57bd 7ce4 c2bc 0368 b23d
00000060: 1ab7 26bd 1246 94b1 a72e 56bd bdd7 83bc
00000070: 7f65 46b0 ebb8 49be 71d7 50bd 42cf 90bd
00000080: da6b 09b2 6c67 12bd 4039 5fbd cd03 5ab4
00000090: 3b68 803e e66a 6434 c5f3 37bd 99ff 82bd
000000a0: ac8d 13bd 77be 7d3e ed34 e03c 4d2a e332
000000b0: 2160 91bd 089c 55bd 0eb9 ca34 f61f 833d
000000c0: 3ce2 7a3c 527c 323d 9121 25bc b0ea 813b
000000d0: 350c cbba 2e5e bcbc d4a3 92bd 9f6b 88bd
000000e0: c763 443d 4f48 9a3c 5d08 acb5 50cb dbbc
000000f0: 890c 6fbd 6520 cabc 1403 813b 2b6f 92bd
00000100: ef2a 433d 8dce 31bd a401 50b1 d549 2abd
00000110: 32fa 1e3d 7531 b6b1 30c6 d9b2 ecd5 f6bc
00000120: 873f 6b2d fa6b f3bb f728 0dbe 9a50 bfb6
00000130: 7ce6 a1b3 e037 30bc 3fc3 c0bd 2d54 1d3c

blocks.1.dw_bn.running_mean f4 [80]
-0.0008954422 0.0025004812 0.072597764 0.01786665 0.023952998 -0.027098661 0.032813825 0.0
0.019005004 0.0 -0.0025422378 0.0 -0.026417837 -0.12434537 0.0 0.016938318
-0.0033968473 -0.033998698 0.0 0.00020038181 -0.03927865 -0.018672323 -0.001045071 0.012223675
0.023102762 0.0 0.014146683 0.0019995128 0.0 0.009454747 -0.03151686 -0.007762958
0.0 0.036483727 -0.011029868 0.0 -0.009243562 0.0 -0.081882395 0.00021201007
0.026274085 0.006548871 0.007878157 0.0 0.09792114 -0.008008697 0.0 0.033204954
0.005018398 -0.09177189 -0.0056091887 0.025483156 0.0 0.015305607 0.0057135825 -0.001941404
-0.02610012 0.0026159221 0.0 0.018284116 0.018050611 0.006233762 0.009118408 -0.011658503
-0.043923818 0.008875904 0.0 0.010908737 -0.010882092 0.0 0.0 -0.006992002
0.0 -0.00380693 0.0146053815 0.0 0.0 0.0072962185 -0.002876962 -0.06830634
00000000: 1cbc 6aba 1ddf 233b 23ae 943d 155d 923c
00000010: 1439 c43c 03fe ddbc ca67 063d 0000 0000
00000020: 62b0 9b3c 0000 0000 ac9b 26bb 0000 0000
00000030: 386a d8bc c9a8 febd 0000 0000 3ac2 8a3c
00000040: a49d 5ebb 3842 0bbd 0000 0000 951d 5239
00000050: a6e2 20bd b3f6 98bc c4fa 88ba cf45 483c
00000060: 0142 bd3c 0000 0000 7dc7 673c 420a 033b
00000070: 0000 0000 15e8 1a3c d317 01bd 6960 febb
00000080: 0000 0000 f66f 153d 9fb6 34bc 0000 0000
00000090: 4f72 17bc 0000 0000 f5b1 a7bd 054f 5e39
000000a0: c03c d73c e997 d63b 6313 013c 0000 0000
000000b0: e18a c83d e936 03bc 0000 0000 eb01 083d
000000c0: 6071 a43b e7f2 bbbd 49cd b7bb 0dc2 d03c
000000d0: 0000 0000 5ec4 7a3c 0139 bb3b b576 feba
000000e0: ebcf d5bc e46f 2b3b 0000 0000 92c8 953c
000000f0: e0de 933c 9644 cc3b 6065 153c 4e03 3fbc
00000100: 76e9 33bd 3d6c 113c 0000 0000 8fba 323c
00000110: cd4a 32bc 0000 0000 0000 0000 2a1d e5bb
00000120: 0000 0000 b07d 79bb 694b 6f3c 0000 0000
00000130: 0000 0000 1e15 ef3b 6a8b 3cbb 32e4 8bbd

blocks.1.dw_bn.running_var f4 [80]
0.005561114 0.0006934957 0.008088909 0.001964849 0.0025219265 0.0035389105 0.0030442907 0.0
0.0007411434 0.0 0.00069675397 0.0 0.0018158103 0.006751073 0.0 0.00073370594
0.00519108 0.0028419832 0.0 0.00043715228 0.009085425 0.0041014096 0.00045742892 0.0008485858
0.0056327083 0.0 0.0007181509 0.0068089706 0.0 0.001911865 0.0015449895 0.0067776246
0.0 0.0017605731 0.00012378821 0.0 0.007269516 0.0 0.012579257 0.00021806048
0.0009504497 0.0014338737 0.006824798 0.0 0.0013317065 0.0023500647 0.0 0.00195462
0.0017633836 0.0051743183 0.0058635958 0.0013546578 0.0 0.002102841 0.0005187784 0.001955771
0.0014092216 0.0016251575 0.0 0.0032323408 0.0018792799 0.0048291995 0.0024265086 0.008337372
0.0029742173 0.00056000444 0.0 0.009836922 0.0018271308 0.0 0.0 0.005254669
0.0 0.00046329308 0.00245476 0.0 0.0 0.002150822 0.004373257 0.001166832
00000000: 013a b63b b5cb 353a 5887 043c b2c4 003b
00000010: e846 253b 11ed 673b b982 473b 0000 0000
00000020: 4b49 423a 0000 0000 5ea6 363a 0000 0000
00000030: 7c00 ee3a 1b38 dd3b 0000 0000 2c56 403a
00000040: ef19 aa3b 9140 3a3b 0000 0000 9631 e539
00000050: 09db 143c 1e65 863b 12d3 ef39 a173 5e3a
00000060: 9592 b83b 0000 0000 4b42 3c3a c91d df3b
00000070: 0000 0000 8b97 fa3a 3f81 ca3a d616 de3b
00000080: 0000 0000 08c3 e63a 25cd 0139 0000 0000
00000090: 1f35 ee3b 0000 0000 3a19 4e3c 2aa7 6439
000000a0: 9a27 793a d1f0 bb3a 8ea2 df3b 0000 0000
000000b0: a88c ae3a 8b03 1a3b 0000 0000 1519 003b
000000c0: 5621 e73a 548d a93b 6823 c03b c68e b13a
000000d0: 0000 0000 d1cf 093b a1fe 073a 642c 003b
000000e0: a1b5 b83a 3d03 d53a 0000 0000 aed5 533b
000000f0: 2b52 f63a 433e 9e3b 0f06 1f3b 7999 083c
00000100: 16eb 423b 43cd 123a 0000 0000 0b2b 213c
00000110: 567c ef3a 0000 0000 0000 0000 5c2f ac3b
00000120: 0000 0000 25e6 f239 0ae0 203b 0000 0000
00000130: 0000 0000 cef4 0c3b 8a4d 8f3b 63f0 983a
