best_weights/compact_cifar10_int8.onnx (onnx, 161043 bytes, 45 tensors)

onnx::Conv_136_scale f4 [40]
00000000: 0c0a dd24 fc73 5f3a e2c4 133a 130a 653a
00000010: 97d3 a42f 1fef 3c3a e376 f839 a584 9a3a
00000020: d89f 923a 762f 2e3a c786 273b f53a f839
00000030: 6ced 9f3a 4e5d 3b25 9fe8 e421 f0c9 003a
00000040: 8dbd 7c3a 2ef2 ae3a 12ca 713a eec7 102b
00000050: c859 a73a 807a 9525 1398 053a f876 1630
00000060: ec7e 303a 5654 4b3a 813f f723 9bba 683a
00000070: af14 243a 02ff ed3a f68d ca39 5da3 523a
00000080: 5de8 233a 6d18 613a 42a9 293a 5db9 d928
00000090: ba6d 0d39 c63a 3e3a d4b5 f53a 2e48 373a
9.586049e-17 0.0008524058 0.0005636943 0.0008737158 2.998177e-10 0.00072072627 0.00047390824 0.0011788799
0.0011186553 0.00066446455 0.0025562511 0.00047346173 0.0012201495 1.6251277e-16 1.5511455e-18 0.00049129035
0.00096412824 0.0013347322 0.0009223531 5.1436535e-13 0.0012767846 2.593039e-16 0.0005096208 5.4738747e-10
0.000673278 0.00077564025 2.6806689e-17 0.0008877904 0.00062591856 0.0018157663 0.00038634212 0.0008035207
0.00062525814 0.00085867086 0.000647206 2.4172228e-14 0.00013487684 0.0007256683 0.0018746206 0.00069916516

onnx::Conv_136_quantized i1 [40, 3, 3, 3]
00000000: 0000 0000 0000 0000 0000 0000 0000 0000
00000010: 0000 0000 0000 0000 0000 0007 a245 2e81
00000020: 6a26 c125 1bb6 2336 8d55 05bd 1211 d60f
00000030: 27c1 4afd db0a 2ac3 2413 bc13 cf81 d926
00000040: c127 19c7 1fc4 82db 28bf 2327 d828 cd8f
00000050: e14f 7f5a 286b 79c2 ef33 e3eb dfee e5e7
00000060: eddd e4df c4b3 facc c125 01f8 fe13 b32e
00000070: 55d2 0f7f 0815 35dc 2c5d e7fd 730d 0b32
00000080: e220 55f2 fb63 06a2 78e7 67c6 cbdf b76e
00000090: f47f c66e 96c8 eda7 5cdb 71ea 69b7 ba16
000000a0: ab43 183a b9d5 2df7 c3f8 3d13 41c3 e33f
000000b0: 07c6 ee35 3268 aae9 741b 81ee 440e 2919
000000c0: 2427 0d42 2703 9788 a58d 81b8 c5bf db4f
000000d0: 623c 4251 4824 1f0a ee47 f5c5 d37f 4890
000000e0: ffe3 2805 d7a8 565a a3e2 101a b5f1 f825
000000f0: 2df5 0ed4 1241 be1a 779b da24 f2a6 816d
0 0 0 0 0 0 0 0
0 0 0 0 0 0 0 0
0 0 0 0 0 0 0 0
0 0 0 7 -94 69 46 -127
106 38 -63 37 27 -74 35 54
-115 85 5 -67 18 17 -42 15
39 -63 74 -3 -37 10 42 -61
36 19 -68 19 -49 -127 -39 38
-63 39 25 -57 31 -60 -126 -37
40 -65 35 39 -40 40 -51 -113
-31 79 127 90 40 107 121 -62
-17 51 -29 -21 -33 -18 -27 -25
-19 -35 -28 -33 -60 -77 -6 -52
-63 37 1 -8 -2 19 -77 46
85 -46 15 127 8 21 53 -36
44 93 -25 -3 115 13 11 50
-30 32 85 -14 -5 99 6 -94
120 -25 103 -58 -53 -33 -73 110
-12 127 -58 110 -106 -56 -19 -89
92 -37 113 -22 105 -73 -70 22
-85 67 24 58 -71 -43 45 -9
-61 -8 61 19 65 -61 -29 63
7 -58 -18 53 50 104 -86 -23
116 27 -127 -18 68 14 41 25
36 39 13 66 39 3 -105 -120
-91 -115 -127 -72 -59 -65 -37 79
98 60 66 81 72 36 31 10
-18 71 -11 -59 -45 127 72 -112
-1 -29 40 5 -41 -88 86 90
-93 -30 16 26 -75 -15 -8 37
45 -11 14 -44 18 65 -66 26
119 -101 -38 36 -14 -90 -127 109

onnx::Conv_139_scale f4 [40]
00000000: 321a 8024 b4ed 1b3c eb3a b93c 7945 d23b
00000010: c176 b132 c89c ac3c 6640 6f3c 3410 ec3b
00000020: 0a59 8d3c e6e4 ef3b b3f9 b23b 92f8 0b3b
00000030: 9393 a43c fb2f 0f25 e1a7 8123 16ef 3d3c
00000040: 3e9d 313c 9214 fe3b 9f91 843c ace4 fd2b
00000050: 9a8a 2d3c 45b2 9024 b66b 943b 52bf 2831
00000060: bb03 6e3b b6d3 263c 3863 3d23 69c1 223c
00000070: 2725 4c3c 5fb0 503c 28c6 1f3c b7fd 813b
00000080: 2031 f03b 2109 6b3c 303c 273c 1cbd 8e27
00000090: 8c91 4e3c e724 583c 3bea d93b 4dfc bd3c
5.555553e-17 0.009517122 0.022611102 0.006416973 2.0659515e-08 0.021070853 0.014602756 0.00720408
0.017254371 0.007320988 0.0054618954 0.0021357876 0.0200899 1.2419529e-16 1.4057308e-17 0.011592647
0.010840712 0.007753917 0.016182719 1.80402e-12 0.010592127 6.2752045e-17 0.0045294417 2.455597e-09
0.0036318142 0.010182312 1.0266721e-17 0.009933808 0.01246003 0.012737363 0.009751834 0.0039670127
0.007330075 0.014345438 0.010207221 3.961795e-15 0.012607943 0.013192392 0.006650237 0.023191595

onnx::Conv_139_quantized i1 [40, 1, 3, 3]
00000000: fdff f502 0a03 0810 040e ee10 ed7d 8fd6
00000010: 7f9f 0248 2f24 767f aa1d 27d7 c7a4 2036
00000020: ec20 7f3a db17 10f9 3e7f b7fb 52ec fc11
00000030: d87f ba3c cbf6 16e2 e226 178c 0a7f d346
00000040: 0844 fd81 cf19 8ff2 2800 ddb5 7ff4 05a1
00000050: 3de8 4758 921d 7fa0 9be2 dcaf 01b1 fe64
00000060: f07f 59ef f0c6 c88f 95fe 81ba ea09 12ca
00000070: 73a5 5381 4801 0002 fbf1 f300 f7f9 0000
00000080: 0001 0100 0001 0015 e3fe 7fce 986c f9c0
00000090: f012 f16f 9aff 5781 2a00 5352 eca5 81f1
000000a0: 3b2f ecd6 387a 81c7 e77e d906 f4e9 6069
000000b0: 7f5b 4277 e460 eab4 1a7f da9b 11c1 c1ae
000000c0: 4351 0b7f 794c 0cb9 f3ef 81a8 09ab e0cd
000000d0: 1c00 2d6b 710a 7f71 2712 1781 9d93 86bb
000000e0: bbcb 89e9 7f59 ceb3 3930 fc00 fffc 0205
000000f0: 0008 08f2 6306 501c 8b66 ba81 c230 2b2d
-3 -1 -11 2 10 3 8 16
4 14 -18 16 -19 125 -113 -42
127 -97 2 72 47 36 118 127
-86 29 39 -41 -57 -92 32 54
-20 32 127 58 -37 23 16 -7
62 127 -73 -5 82 -20 -4 17
-40 127 -70 60 -53 -10 22 -30
-30 38 23 -116 10 127 -45 70
8 68 -3 -127 -49 25 -113 -14
40 0 -35 -75 127 -12 5 -95
61 -24 71 88 -110 29 127 -96
-101 -30 -36 -81 1 -79 -2 100
-16 127 89 -17 -16 -58 -56 -113
-107 -2 -127 -70 -22 9 18 -54
115 -91 83 -127 72 1 0 2
-5 -15 -13 0 -9 -7 0 0
0 1 1 0 0 1 0 21
-29 -2 127 -50 -104 108 -7 -64
-16 18 -15 111 -102 -1 87 -127
42 0 83 82 -20 -91 -127 -15
59 47 -20 -42 56 122 -127 -57
-25 126 -39 6 -12 -23 96 105
127 91 66 119 -28 96 -22 -76
26 127 -38 -101 17 -63 -63 -82
67 81 11 127 121 76 12 -71
-13 -17 -127 -88 9 -85 -32 -51
28 0 45 107 113 10 127 113
39 18 23 -127 -99 -109 -122 -69
-69 -53 -119 -23 127 89 -50 -77
57 48 -4 0 -1 -4 2 5
0 8 8 -14 99 6 80 28
-117 102 -70 -127 -62 48 43 45

onnx::Conv_142_scale f4 [80]
00000000: 7fbd 6f3b 0e75 023b 7806 123b db81 853a
00000010: 5963 1d3b c9b2 133b 4eec bf3b 8883 9c28
00000020: cbd5 443b c932 b023 86b5 dc3a 84ea b036
00000030: 8e7f d13a f964 313b b784 b836 f0ac ad3a
00000040: fcd8 b13b f655 8b3b aa81 dd35 5f3a 003b
00000050: e68b f73a 4ff9 b63b bde9 0c3b 39d2 873b
00000060: 65e9 b73b f220 2026 d0c5 813b ed1c 353b
00000070: b7fe 2125 64fc b73b 20cc 2a3b 0deb 983b
00000080: 7ff8 6125 3e2a 933b 8e2d 403a ad51 012b
00000090: 9513 bd3b c8e9 1b28 f59b 9d3b 7444 033b
000000a0: c5e8 353b 75b6 e03a e023 323b 6666 2028
000000b0: e829 f63a f375 a53b 0a04 fa29 f7b4 e13a
000000c0: 6e4d ec3a 5bea 703b 62f8 b43b b486 a23b
000000d0: 5a85 c135 945a c23b 9d05 ab3a 252a 253b
000000e0: d355 0c3b cd99 503b 6999 8a2c ce54 ac3b
000000f0: 6e92 9c3b dae9 3c3b 0e12 1a3b 250e 5c3b
00000100: 79df e03a e1d6 b53b f6ee 6326 c9e4 543b
00000110: 26e3 af3a eeff 1126 6ef8 b729 5161 913b
00000120: 3abe e323 1469 a93a 18d2 173b 8a27 a62e
00000130: 505a cf28 4a9a 8d3b 656b 763b ddb5 563b
0.0036581454 0.0019906196 0.0022281688 0.0010185795 0.0024015515 0.0022536984 0.005857027 1.7376522e-14
0.0030034657 1.9103467e-17 0.0016838766 5.27251e-06 0.0015983449 0.002706824 5.4990774e-06 0.0013250392
0.005427478 0.0042521907 1.650352e-06 0.0019566042 0.0018886297 0.005583919 0.0021501624 0.0041449335
0.0056125396 5.55558e-16 0.0039603487 0.002763565 1.4050825e-16 0.005614804 0.002606161 0.004666692
1.9599833e-16 0.0044911196 0.0007331007 4.5943354e-13 0.0057701566 8.654922e-15 0.0048098513 0.0020029815
0.002775715 0.001714422 0.0027182028 8.903988e-15 0.00187808 0.005049461 1.1102931e-13 0.001722007
0.0018028447 0.003676078 0.0055227736 0.0049599055 1.4418431e-06 0.005931208 0.0013047938 0.0025202122
0.002141346 0.0031829954 3.939228e-12 0.005259133 0.004778198 0.002882591 0.0023509297 0.0033577767
0.0017156444 0.005549297 7.90803e-16 0.0032485 0.0013419136 5.065383e-16 8.169928e-14 0.00443665
2.4691953e-17 0.0012924992 0.0023165997 7.5558296e-11 2.3020783e-14 0.004321371 0.0037600633 0.0032762208

onnx::Conv_142_quantized i1 [80, 40, 1, 1]
00000000: 00f3 f6b9 0003 02ce 0d09 f8a6 0100 00f8
00000010: fa04 0c00 0100 f800 0b0e 004a f60c cd81
00000020: 4b02 f900 d8fc 1304 0012 e305 00f0 d211
00000030: e597 140a f700 00ed 187f d900 f300 b100
00000040: f51f 0021 fdeb 1901 be1e 0c00 20e6 f2dc
00000050: 0046 7f13 00bc f6f2 c536 08f5 9600 003e
00000060: 4f08 e200 5d00 3300 f011 000a 1f8f 2cc8
00000070: 4511 5300 5a16 1ade 0088 8312 0081 c7cf
00000080: 8905 ec2c 9f00 00a9 93e6 ae00 e400 0200
00000090: 0ece 00ee 08a1 ae0b 0abc 8700 de98 db8c
000000a0: 00d9 d90c 0075 8f1f bbc7 2626 3b00 00da
000000b0: 0cff 8900 e400 0c00 e3ad 0011 30e9 2c07
000000c0: 32c7 2600 f56c 1e7f 007f ba1d 001d 1b15
000000d0: f804 024c 3c00 002f 70f1 e800 1b00 b000
000000e0: 19c7 00d7 b025 cd20 2eb8 1300 cfc0 01f7
000000f0: 00d5 fa03 005e b605 92ca 0ef3 3900 00f4
0 -13 -10 -71 0 3 2 -50
13 9 -8 -90 1 0 0 -8
-6 4 12 0 1 0 -8 0
11 14 0 74 -10 12 -51 -127
75 2 -7 0 -40 -4 19 4
0 18 -29 5 0 -16 -46 17
-27 -105 20 10 -9 0 0 -19
24 127 -39 0 -13 0 -79 0
-11 31 0 33 -3 -21 25 1
-66 30 12 0 32 -26 -14 -36
0 70 127 19 0 -68 -10 -14
-59 54 8 -11 -106 0 0 62
79 8 -30 0 93 0 51 0
-16 17 0 10 31 -113 44 -56
69 17 83 0 90 22 26 -34
0 -120 -125 18 0 -127 -57 -49
-119 5 -20 44 -97 0 0 -87
-109 -26 -82 0 -28 0 2 0
14 -50 0 -18 8 -95 -82 11
10 -68 -121 0 -34 -104 -37 -116
0 -39 -39 12 0 117 -113 31
-69 -57 38 38 59 0 0 -38
12 -1 -119 0 -28 0 12 0
-29 -83 0 17 48 -23 44 7
50 -57 38 0 -11 108 30 127
0 127 -70 29 0 29 27 21
-8 4 2 76 60 0 0 47
112 -15 -24 0 27 0 -80 0
25 -57 0 -41 -80 37 -51 32
46 -72 19 0 -49 -64 1 -9
0 -43 -6 3 0 94 -74 5
-110 -54 14 -13 57 0 0 -12

onnx::Conv_145_scale f4 [80]
00000000: 4590 1a3c 3e81 bd3c b8b1 ad3b bd8e e23c
00000010: d8f6 143c a0c3 0b3c bffa bc3b bdf0 5523
00000020: d402 923c 9e60 a122 812e 703c b379 9e38
00000030: 8c45 333c 8472 b83b 4ea6 a838 5b14 823c
00000040: 227a 043c 5268 413b fb14 dc37 644e d53c
00000050: 1797 673c 0bd3 103c 4353 9a3c fd8d 653c
00000060: c487 f73b 4f7a 9f25 671a 843c ab2c e13b
00000070: 5ab6 5b24 6404 333c 6d3e 9b3c bd92 1d3c
00000080: 2024 a925 0b7f b43c 07e8 1f3d dcab e42a
00000090: 4498 9b3b f883 9c29 49dc a33b 58b4 0b3d
000000a0: 9e6c 513c c370 8a3c 7617 093c b598 8e29
000000b0: ae48 883c afcb f23b dc09 aa2a 69d2 e93c
000000c0: 320c 9a3c 6f48 123c 8b93 473c b6c4 0f3c
000000d0: f52c a437 06ab 433c b366 b03c 5570 833c
000000e0: acf2 a83c 7b4b 033c c529 122d 004d fe3b
000000f0: fe41 3e3c 7782 123c 48d5 843c d14d 363c
00000100: 8b03 393c 54bb 173c 9db1 4326 12b6 183c
00000110: 424f 9d3c a818 4c26 b768 d329 a29b 023c
00000120: 86f8 1122 a297 923c 1dd9 d43c 25cd fb2f
00000130: 03a5 912a da2f 2f3c f20d 0c3c ef6e eb3c
0.009433811 0.023132917 0.0053007267 0.027655954 0.009092055 0.008530527 0.005767196 1.15977315e-17
0.017823614 4.3741435e-18 0.014659525 7.556695e-05 0.010941874 0.0056288857 8.041841e-05 0.015878847
0.008085759 0.0029511643 2.6235813e-05 0.026038356 0.014135144 0.008839379 0.01883853 0.014010903
0.0075540263 2.7664983e-16 0.01612587 0.00687178 4.7642513e-17 0.01092634 0.018950665 0.009617505
2.9341306e-16 0.022033235 0.039039638 4.0620187e-13 0.004748376 6.9506846e-14 0.0050006253 0.034107536
0.012782244 0.016899472 0.00836741 6.332557e-14 0.016636219 0.007409535 3.0204908e-13 0.028542714
0.018804643 0.008928402 0.012181173 0.008774927 1.9571258e-05 0.011942631 0.021533346 0.016044775
0.020623527 0.008013601 8.308414e-12 0.007760644 0.011612413 0.008942238 0.016214982 0.011126951
0.011292349 0.009260971 6.7894926e-16 0.009320753 0.019202832 7.0810133e-16 9.3884475e-14 0.007971676
1.9782732e-18 0.01789457 0.025982434 4.5802398e-10 2.5871674e-13 0.010692561 0.008548247 0.02873942

onnx::Conv_145_quantized i1 [80, 1, 3, 3]
00000000: b6d1 268d 057f e112 51e5 ddd4 1e7f 0ef9
00000010: e7eb 417a e20f 4ba5 367f e214 7f26 05be
00000020: dd0a d8f6 392f a47f 1a99 cdf7 44c3 92d7
00000030: f1c3 c63c 7f5a e5db 0afc 3f7f 1061 2d00
00000040: 0000 0000 0000 0000 1be9 da7f 1601 ad2f
00000050: 7609 fff8 0500 f503 fbf0 fc81 288c 4b57
00000060: 1662 8d05 ba81 bfb3 ba99 b1a3 524a 947f
00000070: de90 e496 ca06 eaf0 b2a5 86e2 9981 e6f9
00000080: 1a63 3381 dee6 fc22 1fc9 844c 7f4f bdec
00000090: c181 bdfe 45e6 1e68 3ae3 e883 b3a6 8aeb
000000a0: 81f2 efbf dbcb 3a20 d87f c8fb fd06 8131
000000b0: 5127 15c3 1543 2cf9 e519 ed81 e5a2 094f
000000c0: 8106 7bb8 f011 5481 f4e8 0cfb c875 0007
000000d0: 86d5 f725 7dbe 7f48 b7ec 2681 7464 de50
000000e0: e77f 1ee1 4e05 bd30 1292 bfd6 20f9 227f
000000f0: 6449 baab dd49 81f1 7ee3 0e5a 1e15 44fd
-74 -47 38 -115 5 127 -31 18
81 -27 -35 -44 30 127 14 -7
-25 -21 65 122 -30 15 75 -91
54 127 -30 20 127 38 5 -66
-35 10 -40 -10 57 47 -92 127
26 -103 -51 -9 68 -61 -110 -41
-15 -61 -58 60 127 90 -27 -37
10 -4 63 127 16 97 45 0
0 0 0 0 0 0 0 0
27 -23 -38 127 22 1 -83 47
118 9 -1 -8 5 0 -11 3
-5 -16 -4 -127 40 -116 75 87
22 98 -115 5 -70 -127 -65 -77
-70 -103 -79 -93 82 74 -108 127
-34 -112 -28 -106 -54 6 -22 -16
-78 -91 -122 -30 -103 -127 -26 -7
26 99 51 -127 -34 -26 -4 34
31 -55 -124 76 127 79 -67 -20
-63 -127 -67 -2 69 -26 30 104
58 -29 -24 -125 -77 -90 -118 -21
-127 -14 -17 -65 -37 -53 58 32
-40 127 -56 -5 -3 6 -127 49
81 39 21 -61 21 67 44 -7
-27 25 -19 -127 -27 -94 9 79
-127 6 123 -72 -16 17 84 -127
-12 -24 12 -5 -56 117 0 7
-122 -43 -9 37 125 -66 127 72
-73 -20 38 -127 116 100 -34 80
-25 127 30 -31 78 5 -67 48
18 -110 -65 -42 32 -7 34 127
100 73 -70 -85 -35 73 -127 -15
126 -29 14 90 30 21 68 -3

onnx::Conv_148_scale f4 [80]
00000000: 5bdf 833b 526c b43b d5ce d23b a3ec 8b3b
00000010: 1bae 8d3b 17ce 523b a49f a33b f1ec 8d3a
00000020: 9341 3d3b 5be3 593b 39b7 943b 452e 713b
00000030: 7328 493b 03f1 6c3b 0107 0f3b b1dc 1f3b
00000040: 240e 403b 376e 013c 2f9c 972e dfdd 8d3b
00000050: 6ac4 793b 34a7 ae2d fe8c 3d3b e3f8 2927
00000060: 2d5b 6d3b f65a 9929 1eb4 653b 54e6 5624
00000070: 124b ab3a 28f0 b426 9e24 e522 7686 ed3a
00000080: df38 883b e579 c33b eeb7 9d3b ca82 2a3b
00000090: c8cb 993b f313 353b 5edd 2723 04a5 c93b
000000a0: ed94 0924 b052 583b 4d06 713b 95cc f43a
000000b0: b2e2 2523 ac75 223b 19fe 153b a9c5 353b
000000c0: 064e a33b a33a 603b 8251 6f3b 8dff 783b
000000d0: 05e2 563b f700 3d3b ecd1 0a3c 6ddb 7e3b
000000e0: 840f 493b 2857 2023 9cad 213b 0e34 6b3b
000000f0: d115 683b 1e6d 0923 b850 593b a480 c23b
00000100: 2035 413b b68b 2f3b 04ca 273b f16e aa3b
00000110: c48a ce3b 420a 2c3b 9f7c 2c3b 3076 5b3b
00000120: 09a3 0c3b 1165 463b 43a1 513b ae34 7d33
00000130: abad 2e3b 960c 6423 45f3 373b 2d51 ac3b
0.004024429 0.005506077 0.0064333477 0.0042701527 0.0043237335 0.0032166296 0.004993396 0.001082806
0.0028878197 0.0033247087 0.0045384434 0.003680126 0.0030694276 0.0036154396 0.0021824243 0.0024393017
0.0029305303 0.007899812 6.894429e-11 0.0043294276 0.0038111457 1.9855763e-11 0.002892315 2.3588383e-15
0.0036217675 6.810344e-14 0.0035049985 4.659895e-17 0.0013068637 1.2555104e-15 6.2109344e-18 0.0018121738
0.00415717 0.0059654587 0.004813186 0.0026017898 0.004693482 0.00276303 9.0999645e-18 0.0061537046
2.9833285e-17 0.003300827 0.0036777437 0.0018676693 8.9926725e-18 0.0024789376 0.002288705 0.0027736223
0.0049836664 0.0034214638 0.0036517088 0.0037994117 0.0032788527 0.0028839686 0.008472901 0.0038888112
0.0030679414 8.6920734e-18 0.002467013 0.0035889181 0.0035413394 7.449891e-18 0.0033159684 0.0059357453
0.0029481128 0.0026786155 0.0025602588 0.0052012135 0.0063031632 0.0026251231 0.0026319397 0.0033487193
0.0021459481 0.0030272643 0.0031986989 5.8954065e-08 0.0026653807 1.236257e-17 0.0028068584 0.0052587003

onnx::Conv_148_quantized i1 [80, 80, 1, 1]
00000000: 10fa 41de f6c1 0900 9a00 0200 d11b 00d2
00000010: d71e 010b 7f18 e626 0100 a4ed 0016 693d
00000020: 00fa 3500 d700 6cf8 42d2 3100 fa07 00ac
00000030: cde6 09b5 004b c268 1a3f 0044 e6ca f5b7
00000040: 5dc4 001f cf00 0039 001f fb00 00fe 33fd
00000050: 0305 e8d5 f4fc 0500 ff00 f900 09c8 00d8
00000060: 07f4 00d8 cb15 f00a eb00 0607 00f9 fffc
00000070: 0014 f700 ff00 f20e 11ec e400 fae6 003f
00000080: e311 ddb4 00f8 e919 edde 00e9 2001 81cf
00000090: e23f 00f1 a400 0007 00ec 0500 001a 2d7f
000000a0: fac0 caeb f41b 0c00 f800 dd00 10e7 00fd
000000b0: e6f5 00ef e605 ddea ed00 e200 00ff 08ff
000000c0: 00dd 0b00 fd00 dafd 0efa ef00 11ec 007f
000000d0: eb1e 02f2 00f7 04f2 f5f0 00f1 edf5 aae7
000000e0: 090e 00d9 ec00 00f3 00ec 1100 0027 02e9
000000f0: 7f0c e923 e53a 0500 8700 ecff 4cfe 01ad
16 -6 65 -34 -10 -63 9 0
-102 0 2 0 -47 27 0 -46
-41 30 1 11 127 24 -26 38
1 0 -92 -19 0 22 105 61
0 -6 53 0 -41 0 108 -8
66 -46 49 0 -6 7 0 -84
-51 -26 9 -75 0 75 -62 104
26 63 0 68 -26 -54 -11 -73
93 -60 0 31 -49 0 0 57
0 31 -5 0 0 -2 51 -3
3 5 -24 -43 -12 -4 5 0
-1 0 -7 0 9 -56 0 -40
7 -12 0 -40 -53 21 -16 10
-21 0 6 7 0 -7 -1 -4
0 20 -9 0 -1 0 -14 14
17 -20 -28 0 -6 -26 0 63
-29 17 -35 -76 0 -8 -23 25
-19 -34 0 -23 32 1 -127 -49
-30 63 0 -15 -92 0 0 7
0 -20 5 0 0 26 45 127
-6 -64 -54 -21 -12 27 12 0
-8 0 -35 0 16 -25 0 -3
-26 -11 0 -17 -26 5 -35 -22
-19 0 -30 0 0 -1 8 -1
0 -35 11 0 -3 0 -38 -3
14 -6 -17 0 17 -20 0 127
-21 30 2 -14 0 -9 4 -14
-11 -16 0 -15 -19 -11 -86 -25
9 14 0 -39 -20 0 0 -13
0 -20 17 0 0 39 2 -23
127 12 -23 35 -27 58 5 0
-121 0 -20 -1 76 -2 1 -83

onnx::Conv_151_scale f4 [80]
00000000: af54 173b 68d4 7a3b 3a9f 6e3b 5d84 203b
00000010: d314 1f3b 7575 553b 6be5 2c3b 5ffd 2e3c
00000020: 472e 863b b187 ee3b 1a1c 323b 553d bc3b
00000030: d52f 3e3b 822a 2e3b 6e9d bf3b db04 403b
00000040: c348 643b 5cef 273b b604 9237 704a 8b3b
00000050: cee3 863b b718 473b cfae 933b b668 033c
00000060: 191c 3f3b 5087 4626 33e1 303b 3e57 413b
00000070: df14 663c 1fd6 543b 8e83 f725 c66a 6d3b
00000080: 5a63 073c ce8b 793b 4f41 3b3b dd53 cc3b
00000090: fa15 313b bd91 9e3b ba52 823b e4ef 2a3b
000000a0: df9e f73b fa09 b43b 67b2 853b 86ce 0a3c
000000b0: 1f33 023c 6e85 5d3b 3a4e c03b fc1d c33b
000000c0: 6b91 4e3b 6f12 243b 5262 503b ea77 723b
000000d0: 0093 063c 06f4 683b 427d 283b 9eaa 283b
000000e0: daef 573b d20a 983b def8 a93b eb82 3a3b
000000f0: 7da4 373b a249 813b 2708 593b 3a83 4d3b
00000100: dc70 6f3b 9a84 4a3b 3c82 bd3b 9ff3 543b
00000110: 4b28 233b 9053 ba3b 8236 a33b 0013 4a3b
00000120: a169 f93b 4eef 8a3b b8e4 c73b be94 7b34
00000130: 8026 783b 8d11 993b 09b5 303b 00ea 013b
0.0023091247 0.0038273577 0.0036410824 0.0024492957 0.0024273887 0.003257123 0.002638186 0.010680526
0.004094872 0.0072793593 0.0027177394 0.005744616 0.002902021 0.002657563 0.0058476245 0.002929977
0.0034833408 0.0025624847 1.740675e-05 0.004250817 0.004116512 0.0030379721 0.004506923 0.0080205705
0.0029161035 6.887843e-16 0.0026989698 0.0029501463 0.014043062 0.003247626 4.2936815e-16 0.0036226972
0.008263433 0.0038077715 0.0028572863 0.006235583 0.0027021156 0.0048391507 0.003977147 0.0026082927
0.0075567807 0.0054943534 0.004080105 0.008472091 0.0079467585 0.0033801454 0.0058687003 0.005954502
0.0031519781 0.0025035401 0.0031796885 0.0036997744 0.0082137585 0.003554584 0.0025709425 0.0025736461
0.003294936 0.0046399618 0.005187138 0.002845938 0.0028021627 0.0039455453 0.0033116431 0.0031358735
0.0036535775 0.003090179 0.0057833474 0.0032493842 0.0024895843 0.005686231 0.004980863 0.0030834079
0.007611469 0.004239953 0.0061002634 2.3430309e-07 0.0037864745 0.0046712817 0.0026963374 0.0019823313

onnx::Conv_151_quantized i1 [80, 1, 3, 3]
00000000: 0e3b 173c 7f5f 2c66 542b 561c 517f 5431
00000010: 5d46 e4cf e0cd 81ac e19c c222 433c 557f
00000020: 513a 6846 f2b6 ace5 8281 f8b9 9fda d4f0
00000030: c081 a0d3 94aa b2a5 cbb0 81bd ddd0 f541
00000040: 07bb 4fea 811a d994 0cd1 8156 0688 6445
00000050: ed19 3c3a 3d7f 693c 5c42 d7b4 d1a9 81a8
00000060: c8b8 c829 4d23 577f 4f42 5933 4558 5000
00000070: ea03 b581 a72a 5150 297f 5d24 3a28 333a
00000080: 1956 7f4c 4876 3057 6c6e 2e74 7f92 acff
00000090: d699 b1c4 81a6 dba9 d0ef cce6 ca93 95be
000000a0: 81ad 396a d02d 7f66 b20f 69da c4cc ce81
000000b0: a3da aabb c6b8 e7c2 81b7 efcf e432 757f
000000c0: 0d3c 31c2 9cb5 f6e1 dfac 81a4 a39a b40a
000000d0: dc13 6b69 2971 7f0e e09a c3cb 819c fbcc
000000e0: c82b 89ae b686 8198 ceda 4d10 856e 0781
000000f0: 6bf7 a9bf cba8 b081 a9ae 87bc 161e a848
14 59 23 60 127 95 44 102
84 43 86 28 81 127 84 49
93 70 -28 -49 -32 -51 -127 -84
-31 -100 -62 34 67 60 85 127
81 58 104 70 -14 -74 -84 -27
-126 -127 -8 -71 -97 -38 -44 -16
-64 -127 -96 -45 -108 -86 -78 -91
-53 -80 -127 -67 -35 -48 -11 65
7 -69 79 -22 -127 26 -39 -108
12 -47 -127 86 6 -120 100 69
-19 25 60 58 61 127 105 60
92 66 -41 -76 -47 -87 -127 -88
-56 -72 -56 41 77 35 87 127
79 66 89 51 69 88 80 0
-22 3 -75 -127 -89 42 81 80
41 127 93 36 58 40 51 58
25 86 127 76 72 118 48 87
108 110 46 116 127 -110 -84 -1
-42 -103 -79 -60 -127 -90 -37 -87
-48 -17 -52 -26 -54 -109 -107 -66
-127 -83 57 106 -48 45 127 102
-78 15 105 -38 -60 -52 -50 -127
-93 -38 -86 -69 -58 -72 -25 -62
-127 -73 -17 -49 -28 50 117 127
13 60 49 -62 -100 -75 -10 -31
-33 -84 -127 -92 -93 -102 -76 10
-36 19 107 105 41 113 127 14
-32 -102 -61 -53 -127 -100 -5 -52
-56 43 -119 -82 -74 -122 -127 -104
-50 -38 77 16 -123 110 7 -127
107 -9 -87 -65 -53 -88 -80 -127
-87 -82 -121 -68 22 30 -88 72

onnx::Conv_154_scale f4 [112]
00000000: b499 193b 382a 1f2e 16c6 403b f419 5b3a
00000010: 4579 d43a f80b da26 e3b0 2f26 8c6c 9a3a
00000020: 41c5 4c3b bacd d03a 7652 a63a be71 193b
00000030: 46a1 533a cb7b 1226 d0ee 9929 6288 b33a
00000040: 5f1f 0535 0683 1f25 f331 7b3b 9ccf 0b3b
00000050: 1461 1425 2a01 353b 70e1 2f3a 2372 862f
00000060: 64d2 3424 5ce2 de3a c315 a726 0e70 c423
00000070: 3163 7d23 5a99 763a 3e12 f03a 48be cf3a
00000080: 6a2f 913a 3dcd 7b3a d0e5 f23a 50d2 9a3a
00000090: d9b9 3f3b 92cd b73a 165c 2125 2d34 b03a
000000a0: df60 a324 1386 c523 63d7 9b37 e040 8624
000000b0: e63d b327 6730 a929 1560 f327 bfd5 fd3a
000000c0: 706f af26 6906 8831 4de0 3f3b f5c6 003b
000000d0: 23fb 6f2e f9b5 6f3a 2c2f e93a 935f a43a
000000e0: eaf1 2a3b c71e fa3a af92 4926 9fa1 9b3a
000000f0: b53e fa3a 5ace 203b d71f d73a aa81 353a
00000100: 5e03 dc3a 3459 913a 5292 1925 c52b 793a
00000110: 431f c33a 4a15 903a dec6 de25 ccc0 372f
00000120: 1c1f 653b 28ce 8124 2e7e 5525 5975 193b
00000130: 5176 1d24 5777 103b 9778 ec3a 8aca 4e3a
00000140: f87f 133b be80 313b 4e39 6f26 7f22 413b
00000150: d4ea 7b3a 2b1c d13a a0e7 e43a 3075 3e3a
00000160: fec6 0b31 94fe c03a 9aac 163b e366 012f
00000170: 2372 d424 ccbe e02c 17c9 e53a 1b12 0a3b
00000180: d91f be3a fdaf d73a 4dee 043b 8c33 c62b
00000190: dab9 1a3b 71b3 283b 91e1 8e3a bee3 8c3a
000001a0: 20aa b73a e251 043b 5b88 4d25 babc 013b
000001b0: f9c1 fe3a a083 9b3a b556 fd23 134d 0029
0.0023437561 3.6189912e-11 0.0029414943 0.00083580543 0.0016210458 1.5130033e-15 6.095505e-16 0.0011781617
0.0031245502 0.0015930452 0.001268937 0.0023413743 0.0008073043 5.0821696e-16 6.835992e-14 0.0013697261
4.959201e-07 1.3835444e-16 0.0038329333 0.0021333462 1.2869845e-16 0.0027619102 0.0006709313 2.4455557e-10
3.9209486e-17 0.0017004716 1.1593851e-15 2.129782e-17 1.3736162e-17 0.00094070064 0.0018315983 0.0015849555
0.0011076753 0.0009605473 0.0018531624 0.0011811946 0.002925506 0.0014023057 1.3995724e-16 0.0013443284
7.085409e-17 2.1415565e-17 1.8577737e-05 5.822314e-17 4.974959e-15 7.513504e-14 6.755022e-15 0.001936607
1.217327e-15 3.9588497e-09 0.002927798 0.0019649838 5.4565363e-11 0.00091442425 0.0017790548 0.001254069
0.0026084133 0.0019082659 6.9934677e-16 0.0011873728 0.0019092174 0.0024537058 0.0016412687 0.00069239235
0.0016785671 0.0011089207 1.332021e-16 0.00095051184 0.0014886636 0.0010992673 3.864562e-16 1.6712248e-10
0.003496117 5.6294074e-17 1.8517556e-16 0.0023415892 3.4144166e-17 0.0022043788 0.001804131 0.0007888457
0.0022506695 0.0027084793 8.2997444e-16 0.0029470024 0.0009609882 0.0015953829 0.0017464049 0.0007265387
2.0340276e-09 0.0014724308 0.0022991062 1.1769034e-10 9.21337e-17 6.3876456e-12 0.0017531243 0.002106792
0.0014505341 0.0016455647 0.002028364 1.4083053e-12 0.0023609311 0.002574172 0.0010900964 0.0010749025
0.0014012493 0.0020190408 1.7827115e-16 0.0019796328 0.001943647 0.0011864789 2.7467037e-17 2.848856e-14

onnx::Conv_154_quantized i1 [112, 80, 1, 1]
00000000: 07c4 57ec d239 c40e 05e8 ed08 f3f0 c402
00000010: 0f5b 007f 46eb da06 f100 1e08 ea03 0003
00000020: 02db 2613 c2cf f9da 08f6 37ea fad9 22e8
00000030: 3105 10e6 0712 0ae1 04e8 d7ee 5130 1932
00000040: f6e2 4207 0532 d937 00eb e300 c6f4 fbf2
00000050: b5ca 01c6 b962 14ec 183a def4 81dd 1dce
00000060: ee00 17ea 0f17 c911 0a00 0d0d e02f 00d9
00000070: 3bd5 0bef f939 c5f7 fa2e d45f fede 040b
00000080: e534 c5e7 ccb6 3af9 fde9 e6d4 9907 c047
00000090: 4af2 e040 360a 04cd 4916 105b 32dc d8b5
000000a0: ebf0 7028 21b1 46da d013 20f0 0e25 1515
000000b0: f2f1 00ca edec 0bb0 4100 0102 d6f5 00f0
000000c0: d40d e8f0 14f1 fbbf e3d5 4402 ff08 c8e8
000000d0: 3ac4 7fee df48 82c3 d6f4 1f4d d91a 05e3
000000e0: ef19 f912 fed9 d52f 07ee fb00 3402 ea03
000000f0: c1c3 d7c7 ef34 e2c9 0ded d4ae f3fc b2e6
7 -60 87 -20 -46 57 -60 14
5 -24 -19 8 -13 -16 -60 2
15 91 0 127 70 -21 -38 6
-15 0 30 8 -22 3 0 3
2 -37 38 19 -62 -49 -7 -38
8 -10 55 -22 -6 -39 34 -24
49 5 16 -26 7 18 10 -31
4 -24 -41 -18 81 48 25 50
-10 -30 66 7 5 50 -39 55
0 -21 -29 0 -58 -12 -5 -14
-75 -54 1 -58 -71 98 20 -20
24 58 -34 -12 -127 -35 29 -50
-18 0 23 -22 15 23 -55 17
10 0 13 13 -32 47 0 -39
59 -43 11 -17 -7 57 -59 -9
-6 46 -44 95 -2 -34 4 11
-27 52 -59 -25 -52 -74 58 -7
-3 -23 -26 -44 -103 7 -64 71
74 -14 -32 64 54 10 4 -51
73 22 16 91 50 -36 -40 -75
-21 -16 112 40 33 -79 70 -38
-48 19 32 -16 14 37 21 21
-14 -15 0 -54 -19 -20 11 -80
65 0 1 2 -42 -11 0 -16
-44 13 -24 -16 20 -15 -5 -65
-29 -43 68 2 -1 8 -56 -24
58 -60 127 -18 -33 72 -126 -61
-42 -12 31 77 -39 26 5 -29
-17 25 -7 18 -2 -39 -43 47
7 -18 -5 0 52 2 -22 3
-63 -61 -41 -57 -17 52 -30 -55
13 -19 -44 -82 -13 -4 -78 -26

onnx::Conv_157_scale f4 [112]
00000000: 98b0 833b bd40 662f 63b6 873b 9213 d93c
00000010: 29b9 2b3c 0a1e 6527 7ed8 cf25 aafc 8d3c
00000020: cd96 173c 196e 273c aa95 363c 7908 453c
00000030: b61a 903c f720 3726 0b69 a72b 62db 373c
00000040: e64f bf36 4f7d cf24 d80d 1b3c b4f5 123c
00000050: f314 6924 8f27 123c 71b8 cc3c 07f0 4930
00000060: 944e f623 44b5 1b3c 0aab de26 a8c3 0924
00000070: e851 0323 5f2d 6e3c b3b0 823c bdcb 293c
00000080: c2a3 163c bae9 8a3c 3c42 053c 94c1 863c
00000090: ebbe d63b 66f1 963c 4ddb 1d24 22bd 763c
000000a0: bf9f 1a25 63df 1524 9c9d cd39 db30 d723
000000b0: 008f e228 c9c4 ac2a 083e 5628 57df cf3b
000000c0: 01f5 5627 1a1e a932 d545 443c 48ae 7f3c
000000d0: bad1 882e 15b9 9a3c e46e cd3b f15e 5a3c
000000e0: f5b8 8a3b de98 e13b 4dc3 dc26 ae1c 943c
000000f0: 8513 243c 17e7 c73b 156b 593c 41ad 753c
00000100: 3b0a f03b 7534 743c 5588 6a24 63ec 6a3c
00000110: 6968 013c 4445 6a3c 1ed4 8526 a91b 1d2f
00000120: 0428 f83b e717 2b24 a57c 6224 d44d 193c
00000130: dc33 1a24 b3cc 493c 44a6 973c 615a ab3c
00000140: 5bdb 7e3c 187d af3b c308 8826 55aa 163c
00000150: 9f67 623c 2c37 a63c 71cf 223c 886c c73c
00000160: 0aaa 0832 8c6f 563c 8c01 9e3b 0ff8 672e
00000170: 4148 1324 4f36 722e 7f94 693c 2e22 1d3c
00000180: fbac bb3c 4321 283c a5ac 1c3c e4bb 302c
00000190: 5b35 0b3c 6e24 163c ca6e 8a3c 6177 9e3c
000001a0: 9616 673c 0d74 203c 315b 9d24 ec3c 3b3c
000001b0: f83e 503c 4330 863c 57b0 a023 afca 362a
0.0040188543 2.0941378e-10 0.0041416152 0.02649859 0.010481157 3.1796418e-15 3.6055477e-16 0.017332394
0.009252262 0.01021912 0.011144081 0.012025946 0.017590862 6.3535555e-16 1.1895219e-12 0.0112217385
5.701545e-06 8.998422e-17 0.00946375 0.008969713 5.0541566e-17 0.008920564 0.024990292 7.3464473e-10
2.6704653e-17 0.009503666 1.5450705e-15 2.9872867e-17 7.1188686e-18 0.0145371845 0.015953397 0.010363516
0.009194316 0.016957153 0.008133467 0.016449727 0.006553521 0.018425655 3.4229703e-17 0.015059741
1.3411495e-16 3.249844e-17 0.00039218075 2.3331038e-17 2.5153057e-14 3.0689885e-13 1.1892837e-14 0.006343763
2.9831283e-15 1.9687878e-08 0.01197954 0.015605517 6.221819e-11 0.018887082 0.0062693227 0.0133283
0.0042334744 0.0068846783 1.5318503e-15 0.018080082 0.010014419 0.006100546 0.013270159 0.01499492
0.0073254383 0.014905085 5.085614e-17 0.014338586 0.0078984285 0.014298741 9.286223e-16 1.4288894e-10
0.0075731296 3.709996e-17 4.9111516e-17 0.009356935 3.3437354e-17 0.0123168705 0.018511899 0.02091712
0.015555228 0.0053554885 9.439271e-16 0.009195884 0.0138186505 0.02028998 0.009937153 0.024343744
7.954904e-09 0.013088118 0.0048219617 5.274364e-11 3.1936745e-17 5.5072665e-11 0.014256596 0.009590669
0.022909632 0.010261836 0.009562646 2.5115405e-12 0.008496608 0.009163959 0.016898531 0.019344034
0.014104506 0.009793294 6.824238e-17 0.011428099 0.012710325 0.016380435 1.7421918e-17 1.6235167e-13

onnx::Conv_157_quantized i1 [112, 1, 3, 3]
00000000: f5a5 b204 81b1 e2c8 c66a 4302 fa9c 8187
00000010: 9a82 13ca ddac ed92 a4d5 81ce d21d 10f5
00000020: e67f fcb9 167f 5b06 cffe f6b6 e4fb cc81
00000030: 20e8 261b 7b7e 0c16 0eff 0611 efdf f307
00000040: 03d4 b8d0 7fc7 d171 20ef db77 ff81 39f8
00000050: becc 81c9 0f9e ff46 6f56 a0b5 5e81 f87e
00000060: ef2d 28e9 5019 dc7f 2ccb d1cc 28c0 ef7f
00000070: aae6 3edd dfec 15e2 e61c d906 f2f3 267f
00000080: 6b46 2212 d4d4 dcf3 dc51 7fe8 8f56 60bf
00000090: f3dc fb46 e4f3 7f09 a300 0000 0000 0100
000000a0: 0000 d4a5 c8db 03dd 247f 38ca e839 b4dd
000000b0: 7ffb c412 f1dc 7ff3 a622 d599 8fc4 f3cb
000000c0: cc7f 30cd 6e3c dfe5 c0e8 b7cc 357f 4bfc
000000d0: 9a60 2781 4cf8 ac2f f2fc f7f4 f4f2 fbff
000000e0: fbe3 6d2a eb6e 13d7 819d db4c d5ac 705d
000000f0: 9e7f 69ff 0001 0203 0401 0305 fef7 05ff
-11 -91 -78 4 -127 -79 -30 -56
-58 106 67 2 -6 -100 -127 -121
-102 -126 19 -54 -35 -84 -19 -110
-92 -43 -127 -50 -46 29 16 -11
-26 127 -4 -71 22 127 91 6
-49 -2 -10 -74 -28 -5 -52 -127
32 -24 38 27 123 126 12 22
14 -1 6 17 -17 -33 -13 7
3 -44 -72 -48 127 -57 -47 113
32 -17 -37 119 -1 -127 57 -8
-66 -52 -127 -55 15 -98 -1 70
111 86 -96 -75 94 -127 -8 126
-17 45 40 -23 80 25 -36 127
44 -53 -47 -52 40 -64 -17 127
-86 -26 62 -35 -33 -20 21 -30
-26 28 -39 6 -14 -13 38 127
107 70 34 18 -44 -44 -36 -13
-36 81 127 -24 -113 86 96 -65
-13 -36 -5 70 -28 -13 127 9
-93 0 0 0 0 0 1 0
0 0 -44 -91 -56 -37 3 -35
36 127 56 -54 -24 57 -76 -35
127 -5 -60 18 -15 -36 127 -13
-90 34 -43 -103 -113 -60 -13 -53
-52 127 48 -51 110 60 -33 -27
-64 -24 -73 -52 53 127 75 -4
-102 96 39 -127 76 -8 -84 47
-14 -4 -9 -12 -12 -14 -5 -1
-5 -29 109 42 -21 110 19 -41
-127 -99 -37 76 -43 -84 112 93
-98 127 105 -1 0 1 2 3
4 1 3 5 -2 -9 5 -1

onnx::Conv_160_scale f4 [112]
00000000: cca4 2e3b d9f8 7131 b9fe 833b badf a03b
00000010: 933a fa3a ff33 0f30 49ae 303b 457a 5a3b
00000020: bf0b 643b 8a36 283b a648 9a3b 45a6 893b
00000030: ef12 813b e5dd 7d37 f6b3 3b2b 142d 7e3b
00000040: 1677 db38 388e 9726 d16c 012a 1336 bf3b
00000050: 93d8 d03a 666f 683b 6628 dd3b 4e2e b632
00000060: 9a48 733b 5230 883b 44ad e727 ceb8 e83a
00000070: ceb4 143b 38b2 863b d34d 993b 3e7f 983b
00000080: bf87 143b 56ee 9f3b d1f4 813b 4355 9e3b
00000090: 71fe 833b 96f7 513b 65f2 103b ba3f 123b
000000a0: 3929 1a27 66eb c638 d269 ff3a 3ca3 5327
000000b0: 2322 f934 5a1d 6a30 fb31 373b a039 5b3b
000000c0: 269a 922f 92c8 733b 7078 c13b 7884 8d3b
000000d0: 311a 193b be19 963b 4dfe 413b 178b 3a3b
000000e0: 0b7b 483b 545c 753b c697 3429 364c 8d3b
000000f0: 634a 983b c540 432b 33ac c43b 6e5f 9e3b
00000100: 64f8 b43b 7b6d 8e3b 472b 6f2a 7223 993b
00000110: d0b6 753b b4e5 a53b d372 803b 80d4 1d30
00000120: 4cbb 753b cb30 fb32 27f0 1529 ccb8 913b
00000130: 6f21 e130 72fb 983b 6e8f 9f3b 1e65 ab3b
00000140: c10d 3c3b 4dcd 303b 1d62 292f 91f5 733b
00000150: 2901 873b b1da 5c3b 3800 273b f514 9f3b
00000160: 6de5 e435 38c8 7b3b ffae 573b 0987 912e
00000170: 77ff 0c26 93d0 143b a661 783b f610 673b
00000180: 72b5 823b f688 2c3b 10db c23b be0b fc26
00000190: a773 803b 36e5 4e3b 8643 ac3b 7bd1 c43b
000001a0: f7e8 703b e5e6 883b bd83 c228 4c86 b93b
000001b0: 4a67 993b 87be bd3b 0187 3b34 1fb5 5b33
0.002664852 3.521157e-09 0.004028168 0.004909483 0.0019090943 5.209699e-10 0.002695935 0.0033337038
0.003479704 0.0025667273 0.0047083674 0.004200729 0.0039390246 1.5131639e-05 6.668549e-13 0.0038784193
0.00010464915 1.0516278e-15 1.1495255e-13 0.0058353036 0.0015933685 0.003546679 0.0067492006 2.1208646e-08
0.0037122131 0.004156151 6.4303235e-15 0.0017755271 0.0022690776 0.004110601 0.004678467 0.0046538403
0.0022663919 0.004880707 0.003965952 0.0048319413 0.0040281345 0.0032038442 0.0022117135 0.0022315816
2.139414e-15 9.485222e-05 0.0019486493 2.9370622e-15 4.6404702e-07 8.5170415e-10 0.0027953375 0.0033451095
2.6666774e-10 0.0037198407 0.00590425 0.00431877 0.0023361559 0.0045807054 0.0029601038 0.0028464252
0.0030590917 0.0037439065 4.009967e-14 0.0043120636 0.0046475395 6.93678e-13 0.006001973 0.0048331534
0.0055227745 0.004346547 2.1242479e-13 0.004673415 0.0037492998 0.005062783 0.003919938 5.741825e-10
0.003749567 2.9242434e-08 3.3292945e-14 0.0044470783 1.6380407e-09 0.0046686465 0.004869393 0.00523056
0.0028694721 0.0026977838 1.5405317e-10 0.0037225226 0.0041200113 0.0033699686 0.0025482308 0.004854793
1.7054095e-06 0.00384189 0.0032910702 6.6178237e-11 4.8918477e-16 0.0022707328 0.00379 0.0035257912
0.003988915 0.0026326752 0.0059465244 1.7489195e-15 0.003920037 0.0031569726 0.005257073 0.0060064173
0.0036759952 0.0041779154 2.1595459e-14 0.0056617614 0.0046815025 0.005790535 1.7464846e-07 5.115464e-08

onnx::Conv_160_quantized i1 [112, 112, 1, 1]
00000000: 3b00 20ca 0600 0032 0d25 dbe7 f100 000a
00000010: 0000 a9c9 0015 d000 00ed 0000 0014 a46b
00000020: 48c9 368c cfaa 001a 0000 0100 0000 002c
00000030: 0000 23e6 00cc 10bb e6ef 0016 18f5 d5e7
00000040: 470b 00d1 8b06 0000 5300 00c4 00d9 c2e1
00000050: cfe6 0017 ace2 d333 003f b900 0000 3b07
00000060: dfb9 2900 feeb 7f97 23fb 00e8 da49 0000
00000070: 1902 d70d 0300 0024 3c81 e213 d100 00f6
00000080: 4200 d2c5 002b 0901 00d6 0000 0025 8e30
00000090: 1dfe 15fa e017 0005 0000 e800 0000 00b7
000000a0: 00f1 11de ff01 1412 dec5 001b 0f0c 1b23
000000b0: 3052 000e e732 0001 2400 0005 001a b71e
000000c0: c629 00e1 240c 0508 f6e0 0203 00ff 3210
000000d0: fc2a 1200 160a d711 110a 00e9 0b06 0000
000000e0: 0900 b947 e300 00f6 f1fe f126 1500 001c
000000f0: 0000 27f6 000c 2e00 000a 0000 0036 e233
59 0 32 -54 6 0 0 50
13 37 -37 -25 -15 0 0 10
0 0 -87 -55 0 21 -48 0
0 -19 0 0 0 20 -92 107
72 -55 54 -116 -49 -86 0 26
0 0 1 0 0 0 0 44
0 0 35 -26 0 -52 16 -69
-26 -17 0 22 24 -11 -43 -25
71 11 0 -47 -117 6 0 0
83 0 0 -60 0 -39 -62 -31
-49 -26 0 23 -84 -30 -45 51
0 63 -71 0 0 0 59 7
-33 -71 41 0 -2 -21 127 -105
35 -5 0 -24 -38 73 0 0
25 2 -41 13 3 0 0 36
60 -127 -30 19 -47 0 0 -10
66 0 -46 -59 0 43 9 1
0 -42 0 0 0 37 -114 48
29 -2 21 -6 -32 23 0 5
0 0 -24 0 0 0 0 -73
0 -15 17 -34 -1 1 20 18
-34 -59 0 27 15 12 27 35
48 82 0 14 -25 50 0 1
36 0 0 5 0 26 -73 30
-58 41 0 -31 36 12 5 8
-10 -32 2 3 0 -1 50 16
-4 42 18 0 22 10 -41 17
17 10 0 -23 11 6 0 0
9 0 -71 71 -29 0 0 -10
-15 -2 -15 38 21 0 0 28
0 0 39 -10 0 12 46 0
0 10 0 0 0 54 -30 51

onnx::Conv_163_scale f4 [112]
00000000: 977f 863b 3e77 0e32 3832 213b c1ec 743b
00000010: 6351 573b 3a60 2232 effe 2f3c a415 4f3b
00000020: 52c2 233b 8aee 373b cd90 1e3b b19d 2e3b
00000030: 8ecd 3a3b 5659 bc3b 688b 142f afaa 413b
00000040: fc38 b23a 3a81 eb25 cbb9 753b e6c7 1e3b
00000050: 734a e03b 5c4c 553b d133 5d3b a170 0b34
00000060: 3f45 013c f81a 5a3b 1870 c627 2a6a de3b
00000070: d121 c63b 7902 413b e518 693b 15e5 593b
00000080: bb43 9a3b 92f8 2f3b 9e90 8e3b 1840 0f3b
00000090: 33fc 663b 9a5f 443b 6727 df3b b73b 5a3b
000000a0: 2ffd b026 6d51 423b 0a3a 3b3c 99ad 8d27
000000b0: 31f2 bc36 449a a530 3d07 d83b ee2d 443b
000000c0: 3280 1430 0c1a 073c 9136 873b 2f8a 663b
000000d0: 24fc fc3b d0df 713b 31bd 383b 5129 733b
000000e0: cb9d 473b c855 5f3b 345d 502a 33c3 673b
000000f0: 0d4d 433b ba48 553b 1f6a 863b 65e1 683b
00000100: 381f 103b f227 373b 44f9 862b 5f62 343b
00000110: 86be 713b 1344 8a3b 501f 063c d3eb cb33
00000120: e0a2 573b 7669 0634 1a5d a32a f1ef 8b3b
00000130: a05c 2332 d924 9f3b 64e8 583b 56bb 363b
00000140: 76b8 403b 6605 633b 473a 2530 674e 4c3b
00000150: ea5e 493b d3ca 1e3b 512c 2b3b 59b8 5a3b
00000160: e48f db39 2624 2c3b f908 4b3b 067b d22f
00000170: 32ca e525 6d18 9e3b 4198 893b 9d49 953b
00000180: d00a 6c3b 8565 673b f772 5c3b 9294 1f2c
00000190: 6156 a43b c7ae 483b 392b 093b 34b6 5a3b
000001a0: 6a11 713b bfb7 253b 4995 1f2a 21b9 513b
000001b0: f99d 333b 5b14 063b 9c1a a835 3b99 7a32
0.0041045654 8.2926e-09 0.0024596583 0.0037372562 0.0032854907 9.4515205e-09 0.010741933 0.0031598592
0.002498765 0.0028065764 0.0024195195 0.0026644284 0.0028503868 0.0057479544 1.3510049e-10 0.0029551198
0.0013597305 4.085357e-16 0.0037494774 0.0024228035 0.0068448125 0.0032546734 0.0033752809 1.2986358e-07
0.007890045 0.0033280235 5.507757e-15 0.006787558 0.0060465117 0.0029450937 0.0035567817 0.0033248116
0.004707781 0.002685104 0.004350736 0.0021858271 0.0035245537 0.002996421 0.006810117 0.0033299753
1.2281079e-15 0.0029650584 0.011427412 3.9323577e-15 5.6310314e-06 1.2049175e-09 0.0065926597 0.0029934603
5.4024263e-10 0.008245956 0.004126378 0.0035177579 0.007720487 0.0036907084 0.0028188939 0.0037103484
0.0030459042 0.003407823 1.8506447e-13 0.003536415 0.0029800565 0.003254457 0.004102006 0.0035534736
0.0021991264 0.0027947393 9.590458e-13 0.0027524454 0.0036887242 0.004219541 0.008186176 9.49582e-08
0.0032903478 1.2518089e-07 2.901922e-13 0.0042705466 9.508909e-09 0.0048566875 0.00330975 0.0027882657
0.0029406822 0.003464067 6.010947e-10 0.003117466 0.003072674 0.002422978 0.0026118944 0.003337404
0.00041878142 0.0026266663 0.003098069 3.828619e-10 3.986218e-16 0.004824689 0.0041990583 0.0045558945
0.0036017187 0.0035308313 0.003363786 2.2677732e-12 0.00501518 0.0030621754 0.0020930304 0.0033372762
0.0036784061 0.0025286523 1.417383e-13 0.0032001215 0.0027407391 0.002045891 1.252472e-06 1.4586756e-08

onnx::Conv_163_quantized i1 [112, 1, 3, 3]
00000000: 3247 414b 7f6e 4878 565f f6b6 7f32 ba32
00000010: 3ee9 feb6 ced6 8181 dd85 9f34 6253 417f
00000020: 610f 3b30 ceb9 d9cc a0a9 cd91 8111 4546
00000030: 0843 7fef 2000 2e58 3b49 7f5a 304d 29d5
00000040: d1e5 3346 3744 7f4d e4bc c8ce 8193 e8a5
00000050: b458 7f7c fa15 0fb9 a0c3 264b 2c65 7f59
00000060: 4675 580b 2837 5077 6044 7f5f 4849 2e58
00000070: 7f50 2c5a 4717 381c 437f 6e57 744a 2c73
00000080: 464c 7f3a 7d71 eafa 6574 397f 7a0f 2114
00000090: ee59 5327 7f7a 4158 2446 487f 0a48 5eab
000000a0: a122 c7a1 bdb4 81a6 d0a5 d2d9 a7a1 b889
000000b0: 81ce b1c0 3dee ac7d 1b81 6248 cced bad8
000000c0: a481 9ba1 8cd9 2d32 184e 7f4d 335f 3aea
000000d0: 5e2b 1f6e 173c 5b7f 1727 164d 7f50 487d
000000e0: 4d25 5639 477f 5230 5e47 e6ee 6831 7f75
000000f0: 204f 4b11 231e 4964 2a40 7f47 617f 573b
50 71 65 75 127 110 72 120
86 95 -10 -74 127 50 -70 50
62 -23 -2 -74 -50 -42 -127 -127
-35 -123 -97 52 98 83 65 127
97 15 59 48 -50 -71 -39 -52
-96 -87 -51 -111 -127 17 69 70
8 67 127 -17 32 0 46 88
59 73 127 90 48 77 41 -43
-47 -27 51 70 55 68 127 77
-28 -68 -56 -50 -127 -109 -24 -91
-76 88 127 124 -6 21 15 -71
-96 -61 38 75 44 101 127 89
70 117 88 11 40 55 80 119
96 68 127 95 72 73 46 88
127 80 44 90 71 23 56 28
67 127 110 87 116 74 44 115
70 76 127 58 125 113 -22 -6
101 116 57 127 122 15 33 20
-18 89 83 39 127 122 65 88
36 70 72 127 10 72 94 -85
-95 34 -57 -95 -67 -76 -127 -90
-48 -91 -46 -39 -89 -95 -72 -119
-127 -50 -79 -64 61 -18 -84 125
27 -127 98 72 -52 -19 -70 -40
-92 -127 -101 -95 -116 -39 45 50
24 78 127 77 51 95 58 -22
94 43 31 110 23 60 91 127
23 39 22 77 127 80 72 125
77 37 86 57 71 127 82 48
94 71 -26 -18 104 49 127 117
32 79 75 17 35 30 73 100
42 64 127 71 97 127 87 59

onnx::Conv_166_scale f4 [152]
00000000: 6385 8f3a e40a 8c2a bfaf 9325 d563 5a24
00000010: 1b37 5a25 a5f4 893a 5b96 d93a 9682 013b
00000020: 4d8f fe25 9d3d d23a f7fe 0f3b ae30 d125
00000030: 6e68 893a c4e3 312b 3675 8732 5b9c 6a3a
00000040: a765 5726 bb9b f629 0890 8a38 1df2 503a
00000050: 8e91 3225 a40b f623 abb4 b83a 84e9 b63a
00000060: 0b00 272c 3180 c83a 3bdd b13a 869b e824
00000070: 7d5e d326 0667 ac3a 8882 213a 8b8c a825
00000080: e5a6 cd3a f207 1d25 0c3b 703a a2ce 3225
00000090: 142a 2b3b 1013 9a3a 80bd 363a 554a a53a
000000a0: ee60 3c26 4962 463a 1ff5 eb3a ceb7 ad3a
000000b0: e88d a63a 2272 e73a 2b76 1627 db32 8126
000000c0: 986d a125 ca9c 923a c5a1 c126 1d84 893a
000000d0: b0a3 253b c885 e039 2caf 7624 b264 162d
000000e0: 0049 9a27 ba64 b03a 987e 7d3a ca7e 1e3b
000000f0: 597b a93a 2ccc 863a 017c 053a b38a e326
00000100: 7eee 4b24 564c 9527 1319 773a e9e9 963a
00000110: fe7f 053b e7b3 463a 010a a33a 0367 7724
00000120: 8876 0e24 f6b8 1b2b 6253 093b 5fdc 8128
00000130: 1dfa 4226 008f 9e3a a590 2524 ffc2 7b3a
00000140: f37d 033b e7b6 753a 84b3 8e3a 44b6 2d26
00000150: c24c 5b26 41a8 933a 288e b528 8a9e a13a
00000160: 9bb0 9625 32fe 803a 13c7 1627 5716 4328
00000170: 65f1 773a c9dc 7a30 7c97 b83a 23a7 d829
00000180: 809b 2c3a 1fc5 5c3a e990 422a 6c45 7425
00000190: dfdd 653a 7ed0 6a27 33f3 4637 7b5f b325
000001a0: 6f2e a32d 9419 0f26 1947 b72f 50f0 d03a
000001b0: cb30 b93a 83fe a83a cd15 cc24 3515 883a
000001c0: 8a54 9b3a 0a14 9028 3810 cb3a 71d5 a53a
000001d0: ccba 4a27 e25e 053b a290 f73a b655 563a
000001e0: 44f4 c528 80ee 793a c168 ca26 5842 8e2a
000001f0: 5d6c 903a ae75 c324 ceb1 2225 290b 3b29
00000200: 907d 0538 3027 9b3a 81fb 9a24 bb8f dd25
00000210: 6501 c33a 1597 bb3a 4405 b53a 8b4d 0b3b
00000220: 1916 bd24 4a53 bc3a 0021 a93a 9377 a33a
00000230: 9ca3 8324 54ab 563a e70f af3a 13cd be24
00000240: bf02 8524 f542 133a 6e31 043b a031 dc3a
00000250: b103 be2a 5292 643a 76d5 6524 37c4 fb39
0.0010949787 2.4876553e-13 2.5619525e-16 4.7355776e-17 1.8927156e-16 0.001052518 0.0016600596 0.0019761673
4.415908e-16 0.0016040091 0.002197204 3.6288707e-16 0.0010483393 6.319912e-13 1.576937e-08 0.00089496904
7.4730874e-16 1.09516095e-13 6.607181e-05 0.0007970648 1.5488355e-16 2.6676303e-17 0.0014091929 0.0013955091
2.3732151e-12 0.0015296993 0.001356996 1.0087743e-16 1.4666677e-15 0.0013153262 0.0006161113 2.923859e-16
0.0015689997 1.3620271e-16 0.0009164072 1.5509049e-16 0.002611761 0.0011754949 0.0006970987 0.0012610654
6.5356967e-16 0.0007567746 0.0018002129 0.0013253631 0.0012707086 0.0017657916 2.088074e-15 8.964958e-16
2.8003312e-16 0.0011185643 1.3435913e-15 0.0010491643 0.0025274567 0.00042824284 5.3491123e-17 8.548872e-12
4.2822733e-15 0.0013457753 0.0009670048 0.002418446 0.0012930437 0.0010284237 0.00050920254 1.5788884e-15
4.422062e-17 4.143857e-15 0.00094260386 0.0011513802 0.0020370479 0.0007579908 0.0012438894 5.364684e-17
3.089174e-17 5.5323747e-13 0.002095424 1.4417448e-14 6.764624e-16 0.0012097061 3.590119e-17 0.0009603947
0.0020064085 0.0009373263 0.001088724 6.026845e-16 7.6084914e-16 0.0011265354 2.0156687e-14 0.0012330574
2.6140525e-16 0.0009841381 2.09246e-15 1.0829519e-14 0.0009458273 9.1263225e-10 0.0014083232 9.6213205e-14
0.00065844506 0.00084217073 1.7280937e-13 2.1187147e-16 0.0008768718 3.2587047e-15 1.1858344e-05 3.111625e-16
1.8551575e-11 4.9647756e-16 3.3338024e-10 0.0015940759 0.0014128921 0.0012893233 8.850783e-17 0.0010382297
0.0011850756 1.5995902e-14 0.0015492504 0.0012652111 2.8134394e-15 0.0020350744 0.0018887708 0.0008176224
2.1977327e-14 0.00095341355 1.4044959e-15 2.5270302e-13 0.0011018623 8.4767127e-17 1.4111503e-16 4.153202e-14
3.182661e-05 0.001183724 6.721292e-17 3.8434784e-16 0.0014877735 0.0014311994 0.0013810773 0.0021255936
8.200312e-17 0.0014368084 0.0012903512 0.0012471549 5.708936e-17 0.0008188982 0.001335618 8.2746774e-17
5.768421e-17 0.00056175824 0.0020171064 0.0016799457 3.3753341e-13 0.0008719313 4.9837268e-17 0.00048020642

onnx::Conv_166_quantized i1 [152, 112, 1, 1]
00000000: 1a00 3835 ad00 cf0c c922 3206 0d0c 00d6
00000010: f700 400d 2a0b 1500 ea7f 001d f7f9 f64e
00000020: 1816 e561 f6d9 0bdb 00f3 0a00 0000 0d02
00000030: 00cd d209 fa01 4607 2202 00d2 0407 d5ca
00000040: 48d8 00d3 4d1b 0f00 2800 00f0 0030 fa0e
00000050: 1cc3 00d8 f9d1 bcd7 0003 e900 00d5 df0e
00000060: b61c c900 c6fd 1132 08cb 002d 22f1 0000
00000070: e211 dc17 17cb 1406 f32d 0212 1f03 ed05
00000080: dc00 d304 1cd4 32f6 f97f 02e0 3007 c31c
00000090: e650 fef9 fbd6 2226 01ce d701 2dfe 12f0
000000a0: d9e7 e4ec dee8 17d6 c2ce fcda dbfb e8ff
000000b0: cf00 d305 1f07 e013 0f06 0905 d2ee 1808
000000c0: fa05 e8fa 08d4 dc57 fed4 35f8 00e6 dd0c
000000d0: e303 e4e8 0b0b e526 43ef 02ec 08ce 17f7
000000e0: 0101 fd02 02ff 0103 00fe 00fc 0300 01ff
000000f0: fd00 fcfe 0000 0101 fe00 fcfc fb00 0000
26 0 56 53 -83 0 -49 12
-55 34 50 6 13 12 0 -42
-9 0 64 13 42 11 21 0
-22 127 0 29 -9 -7 -10 78
24 22 -27 97 -10 -39 11 -37
0 -13 10 0 0 0 13 2
0 -51 -46 9 -6 1 70 7
34 2 0 -46 4 7 -43 -54
72 -40 0 -45 77 27 15 0
40 0 0 -16 0 48 -6 14
28 -61 0 -40 -7 -47 -68 -41
0 3 -23 0 0 -43 -33 14
-74 28 -55 0 -58 -3 17 50
8 -53 0 45 34 -15 0 0
-30 17 -36 23 23 -53 20 6
-13 45 2 18 31 3 -19 5
-36 0 -45 4 28 -44 50 -10
-7 127 2 -32 48 7 -61 28
-26 80 -2 -7 -5 -42 34 38
1 -50 -41 1 45 -2 18 -16
-39 -25 -28 -20 -34 -24 23 -42
-62 -50 -4 -38 -37 -5 -24 -1
-49 0 -45 5 31 7 -32 19
15 6 9 5 -46 -18 24 8
-6 5 -24 -6 8 -44 -36 87
-2 -44 53 -8 0 -26 -35 12
-29 3 -28 -24 11 11 -27 38
67 -17 2 -20 8 -50 23 -9
1 1 -3 2 2 -1 1 3
0 -2 0 -4 3 0 1 -1
-3 0 -4 -2 0 0 1 1
-2 0 -4 -4 -5 0 0 0

onnx::Conv_169_scale f4 [152]
00000000: f628 1d3c 884d 322b b666 ed24 33ad 7824
00000010: ffa0 8425 3138 5b3c 5720 1f3c 66fc fb3b
00000020: 541e 3726 7b4e 533c a513 1f3c e377 f624
00000030: a449 1e3c 0506 152b 9ca0 fe33 be76 973c
00000040: bee4 2326 eef1 122a 08fd db3a 473f 6b3c
00000050: dea9 7e24 a493 ee23 4ddd a03c 9eb0 373c
00000060: 7e0c 0b2d 5210 1f3c 3996 363c b7ae da24
00000070: 2a54 7726 15fe 353c aecb ad3c 2d00 3325
00000080: 2e6a 6c3c 2442 4225 3994 893c 2a6a dd24
00000090: 7997 d83b 4fa4 203c 262b b13c 33e6 143c
000000a0: 9b97 9525 6072 bc3c 941b 123c d30e 2e3c
000000b0: e079 6b3c ac3a 5a3c 0af2 3127 8109 9126
000000c0: 5996 a424 9157 9b3c bc60 b026 c189 5e3c
000000d0: 1f14 8e3c 8096 663d 7528 8f24 0d99 ca2d
000000e0: bbbf b328 b6f6 253c bba5 773c 4c65 613c
000000f0: 0a0a e63b cccc 993c 60b2 f03c b785 d026
00000100: ce87 0125 d83d b328 b8a5 483c 71ed 723c
00000110: c276 7224 6021 ac3c 5b3b 803c 9657 9e23
00000120: e8ed 4224 d791 872d d58f 3f30 43ea 952a
00000130: 384b 2426 8350 a03c 0d79 3723 0b5d 593c
00000140: 8c7f 763c 5812 063c ed83 723c 5233 1226
00000150: bc81 fa26 8012 913c 471e 0d2a 693b 343c
00000160: 1710 3d25 1c12 183c 7b54 2c27 e0ee 9629
00000170: f744 433c a888 5033 6c63 103c cba8 1c2b
00000180: a6cd 633c 193d 573c 3346 272b d01e 2c25
00000190: e5f0 873c 3a7f c127 67df 9938 ded0 0526
000001a0: feaf c72f 1a9f 8a25 12bf c630 ba15 343c
000001b0: 30fb 643c e77b 253c 3354 eb22 44e3 b83c
000001c0: c370 633c a005 f029 ca73 9a3c 4101 663c
000001d0: 3187 6d27 57c6 463c 4f4e 613c b91f a63c
000001e0: 180a e729 a5a7 453c 01c0 bd26 0978 912b
000001f0: 3845 5e3c 9818 0825 22dd 3724 1807 c82b
00000200: 04b3 723b 2ebc 4b3c 71a8 a422 9dd9 b325
00000210: c662 783c 18c7 6d3c 8e17 843c 2d54 5c3c
00000220: 0904 c624 4f45 be3c 1e24 883c 4fb4 7f3c
00000230: 074f be24 c152 843c 0086 0e3c 8194 5a25
00000240: d462 4e24 f324 cf3c 4f20 1b3c a046 443c
00000250: e64c 192c 4731 8f3c 533a 2723 5175 a83c
0.009592285 6.33459e-13 1.02956365e-16 5.3923133e-17 2.3007445e-16 0.013380096 0.0097123 0.0076900003
6.353198e-16 0.012897129 0.009709273 1.0688859e-16 0.009661112 5.294379e-13 1.18570114e-07 0.018489238
5.686199e-16 1.3051341e-13 0.0016783783 0.014358348 5.5221353e-17 2.586654e-17 0.019636774 0.011211542
7.904009e-12 0.009708481 0.011144214 9.483841e-17 8.5809403e-16 0.011107941 0.021215286 1.5525835e-16
0.014429612 1.6849227e-16 0.01679431 9.602332e-17 0.006609854 0.009804799 0.02162702 0.009088087
2.5950112e-16 0.023003757 0.008917708 0.010623652 0.014372319 0.0133196525 2.4694894e-15 1.0063972e-15
7.137836e-17 0.018962653 1.2238673e-15 0.013582648 0.017343579 0.05629587 6.20849e-17 2.303271e-11
1.9956142e-14 0.010129621 0.015115197 0.013757061 0.0070202397 0.018774413 0.02938193 1.4469143e-15
1.1234979e-16 1.9899813e-14 0.012246542 0.014827118 5.2575977e-17 0.021012008 0.015653303 1.7167488e-17
4.226856e-17 1.5412489e-11 6.9689793e-10 2.6630269e-13 5.700087e-16 0.019569641 9.946083e-18 0.013266812
0.015045058 0.008183084 0.014801961 5.072348e-16 1.7382399e-15 0.017709017 1.253382e-13 0.011000493
1.6398588e-16 0.009281661 2.3915592e-15 6.7027764e-14 0.011918298 4.8553062e-08 0.0088127665 5.565658e-13
0.013904011 0.013137125 5.942774e-13 1.4929062e-16 0.01659436 5.37062e-15 7.3372204e-05 4.642671e-16
3.632294e-10 2.4046995e-16 1.4460702e-09 0.010991508 0.013975903 0.010100341 6.3786027e-18 0.022569306
0.013881865 1.0659117e-13 0.01885404 0.014038385 3.2963645e-15 0.012132249 0.01375158 0.020278798
1.0260212e-13 0.012063895 1.3166552e-15 1.0336186e-12 0.013566308 1.1804452e-16 3.9869106e-17 1.4212824e-12
0.003703297 0.012435002 4.4630633e-18 3.119901e-16 0.015160268 0.0145128 0.016124513 0.013447803
8.587565e-17 0.023226408 0.016618785 0.015606954 8.253324e-17 0.016152741 0.00869894 1.8958801e-16
4.475284e-17 0.025286173 0.009468152 0.011979729 2.1785295e-12 0.017479552 9.065439e-18 0.020563753

onnx::Conv_169_quantized i1 [152, 1, 3, 3]
00000000: f1f0 ec96 c492 97aa 81d0 f9c6 405b 666f
00000010: 7f70 3008 e147 e7d5 27e5 fafe ff00 ffff
00000020: 00ff ff00 f910 f6f5 fa22 fde9 097f 7f78
00000030: b5a0 9fa4 9f97 f00e 1761 5257 7c58 7f5d
00000040: 4a7d 5754 7f48 4864 f0e6 e7f0 e2e7 1234
00000050: 377f 20a9 6be3 bbfe b2df 657b 7f40 3032
00000060: eee6 ef32 2de6 1bee 1ffd dbf6 9cb4 9b91
00000070: e381 a0ba 9dc0 f5d4 a2c8 81a3 ba8d a38d
00000080: 9451 276e 457d 7fe2 facb 0d02 054e 7f63
00000090: 8129 67c1 da4a 00ad 03c8 8198 950b 9fba
000000a0: eaad 0015 0242 0f2f 6836 7fa8 bba1 dcde
000000b0: d977 557f ca5a 5cef 0314 d9dc e602 0504
000000c0: fffe fffc fafc 813c 559e 1e55 d3eb f9c7
000000d0: 6e72 ca57 67c6 617f 3848 69bd 819b d5be
000000e0: aadd c6d4 3727 457f 756f d62b de73 4a7f
000000f0: 3b4a 5f01 fcfa 0000 01fd 0b09 1cf8 db20
-15 -16 -20 -106 -60 -110 -105 -86
-127 -48 -7 -58 64 91 102 111
127 112 48 8 -31 71 -25 -43
39 -27 -6 -2 -1 0 -1 -1
0 -1 -1 0 -7 16 -10 -11
-6 34 -3 -23 9 127 127 120
-75 -96 -97 -92 -97 -105 -16 14
23 97 82 87 124 88 127 93
74 125 87 84 127 72 72 100
-16 -26 -25 -16 -30 -25 18 52
55 127 32 -87 107 -29 -69 -2
-78 -33 101 123 127 64 48 50
-18 -26 -17 50 45 -26 27 -18
31 -3 -37 -10 -100 -76 -101 -111
-29 -127 -96 -70 -99 -64 -11 -44
-94 -56 -127 -93 -70 -115 -93 -115
-108 81 39 110 69 125 127 -30
-6 -53 13 2 5 78 127 99
-127 41 103 -63 -38 74 0 -83
3 -56 -127 -104 -107 11 -97 -70
-22 -83 0 21 2 66 15 47
104 54 127 -88 -69 -95 -36 -34
-39 119 85 127 -54 90 92 -17
3 20 -39 -36 -26 2 5 4
-1 -2 -1 -4 -6 -4 -127 60
85 -98 30 85 -45 -21 -7 -57
110 114 -54 87 103 -58 97 127
56 72 105 -67 -127 -101 -43 -66
-86 -35 -58 -44 55 39 69 127
117 111 -42 43 -34 115 74 127
59 74 95 1 -4 -6 0 0
1 -3 11 9 28 -8 -37 32
