best_weights/compact_cifar10_int8_dynamic.onnx (onnx, 439063 bytes, 31 tensors)

fc.bias f4 [10]
00000000: 3122 aa3d a51b 4e3c 3ad9 653d d88f 7abc
00000010: a77b a5bc a8e4 0f3d c5d8 da3c 7132 58bd
00000020: 4822 bcbc 7b3f d1bd
0.08307303 0.012579833 0.056115367 -0.015293084 -0.020200564 0.035130173 0.026714692 -0.05278248
-0.022965565 -0.10217186

onnx::Conv_136 f4 [40, 3, 3, 3]
00000000: 5688 21a3 6577 f4a2 2783 6023 1f85 73a3
00000010: 4430 20a3 2e77 0723 d08d 69a3 1b27 4da3
00000020: 6785 92a2 764e 96a3 908f a3a3 05dc 4ca1
00000030: 0f05 dca3 79b1 8da3 37fd 1e22 0f1f c5a3
00000040: 8a8f 62a3 e4e5 5aa2 dce8 3c23 1865 8423
00000050: 5331 d023 1d7b 9723 b493 1324 cc79 3124
00000060: a664 0523 d42f da23 138e f023 f43d be3b
00000070: 347c a3bd 9185 703d f502 223d 14b5 ddbd
00000080: c383 b93d f34b 043d 83a4 5abd 0e1e 003d
00000090: 1752 b93c 87df 80bd 60b2 f73c 1488 3c3d
000000a0: 8e9a c9bd 0bc9 933d 777b 8d3b 223f 69bd
000000b0: 738b 773c 5c0c 6b3c fe07 11bd 1a61 4c3c
000000c0: 00c6 073d 957c 5cbd 29a2 803d 69e3 1fbb
000000d0: 6c42 02bd 1a44 0e3c 0a3e c43c f852 0dbd
000000e0: 2a5a a43c 7e87 313c 9cff 1cbd 1199 303c
000000f0: 3f69 e0bc 589d 92bd d657 b4bc f764 af3c
00000100: bd52 11bd a057 b43c 6712 663c 5c57 03bd
00000110: 4e28 8e3c bfdb 09bd 9f8c 91bd 7fee acbc
00000120: ae58 ba3c bbc1 15bd 9b9b a23c c411 b43c
00000130: 1fe4 babc 4e11 b93c 9a90 edbc d41a 82bd
00000140: bb69 8dbc 2c03 8d3d ff3f e33d 951f a13d
00000150: 3954 0e3d b46a bf3d 765d d83d ea34 5ebd
00000160: fbdf 70bc 7864 363d 86ef cfbc ece5 98bc
00000170: 15ac e8bc 1e56 7fbc 9e06 c0bc eb00 b4bc
00000180: 5234 89bc e6f8 fbbc 6f1d cbbc 2959 eabc
00000190: 40bf 57bd ab18 89bd 2012 b2bb 7677 3abd
000001a0: 513e 61bd a48f 053d 6b8d 593a 80a3 eebb
000001b0: 83dc 2ab0 5272 c531 f721 c6b2 b29b 6c32
000001c0: f310 da32 31c3 6bb2 869b 9a31 f089 2333
000001d0: 2fad 2131 2dd2 d631 7b5a 8732 bb36 37b2
000001e0: 3cea 6032 1137 ef32 f312 01b2 830d 75b0
000001f0: 6979 1433 f28c 8331 08f1 6731 9d5f 8032
00000200: b0de 18b2 af4c 2632 d4ac d932 2b3a 8fb1
00000210: 77af d9b0 7b97 ff32 34b2 0031 b2b7 8abd
00000220: 2020 b13d d77b 94bc 309a 983d 9fbd 2bbd
00000230: f487 1dbd aba2 c1bc ce5a 56bd 36dc a13d
00000240: d31b 12bc 4175 bb3d 16e1 2bbd 230e a23d
00000250: a11b 9cbd 0abc 25bd c913 65bc aaa9 83bd
00000260: 4337 873d 8f0d dbbc dd4f a63d e798 80bc
00000270: 29d4 9a3d 3aa3 56bd a9d7 4fbd e203 803c
00000280: b7a1 79bd 8782 463d e564 3d3c aab4 df3c
00000290: e920 0abd 3df4 a7bc a76a b03c 3067 86bb
000002a0: ca44 ecbc 88b9 77bb b208 ec3c 3b04 113c
000002b0: 89bd fd3c f0a8 edbc 194e 63bc 4b97 f43c
000002c0: ad75 4a3b 7589 dfbc cb57 08bc 4449 cc3c
000002d0: 8f91 c03c 0ace 4a3d 6a33 26bd ff90 33bc
000002e0: 9dbd 613d b2fe 533c f585 76bd f37c 0ebc
000002f0: ad9d 033d 7193 8a3c fb85 463d 1582 f13c
00000300: 3aa9 2e3d 035b 3d3d 973a 7e3c 3f18 a03d
00000310: 40ea 393d b6a5 5f3b fe52 fdbd b002 11be
00000320: 60a6 dbbd 9d66 0abe 9c4f 19be 05a7 adbd
00000330: 577d 8ebd 2326 9dbd a6de 33bd bb85 bf3d
00000340: 09ba ec3d f7d2 913d a151 9f3d 339c c33d
00000350: f52a ad3d 8894 2b3d c642 153d c986 383c
00000360: 47af a8bc fec8 a13d a4c4 4abc 87c3 86bd
00000370: cb92 4fbd 987a 113e 8540 a53d 6e57 00be
00000380: 8381 90ba 9cda 06bd d199 373d c863 a83b
00000390: 7786 3bbd 1abd c8bd f015 c63d b584 cd3d
000003a0: bac8 d5bd 94dc 07bd 770f 933c 0236 eb3c
000003b0: 838c abbd aed0 8abc f191 19bc 6205 283d
000003c0: 2400 503d 29ea 44bc 93e7 803c 9553 eebc
000003d0: 15b1 433c 59bc 313d 6dfa 32bd 2497 8c3c
000003e0: 6af4 a13d c819 89bd 7875 cfbc 2276 c43c
000003f0: bdb6 1dbc c8ff 74bd 17d3 acbd 4de5 933d
-8.756698e-18 -6.6262746e-18 1.2170837e-17 -1.3201246e-17 -8.683838e-18 7.343602e-18 -1.2660985e-17 -1.1121353e-17
-3.9714625e-18 -1.6296262e-17 -1.7733296e-17 -6.940908e-19 -2.385459e-17 -1.5362413e-17 2.1547044e-18 -2.1371937e-17
-1.228188e-17 -2.9666212e-18 1.024081e-17 1.4354284e-17 2.2572295e-17 1.6423593e-17 3.2000653e-17 3.8483923e-17
7.2312576e-18 2.3655863e-17 2.6081023e-17 0.005805725 -0.07982674 0.05872113 0.0395536 -0.108255535
0.09058335 0.032298993 -0.053379547 0.031278662 0.022622151 -0.062926345 0.030236423 0.04602821
-0.09843932 0.0721608 0.0043176967 -0.056944974 0.015108931 0.014346208 -0.035408013 0.012474323
0.033147812 -0.05382975 0.062809296 -0.0024397022 -0.031801626 0.008683229 0.023955364 -0.034502953
0.020062525 0.0108355265 -0.038329706 0.010778681 -0.027393935 -0.07158917 -0.02201454 0.021410448
-0.035479296 0.02201444 0.014042473 -0.032065734 0.017353203 -0.03365683 -0.071068995 -0.021109818
0.022747364 -0.03656171 0.01984959 0.021981128 -0.022813855 0.02259126 -0.028999615 -0.06352773
-0.01726233 0.068853706 0.11096191 0.07867352 0.03474829 0.09346524 0.10564701 -0.05424968
-0.014701839 0.04452941 -0.025382768 -0.018664323 -0.028402368 -0.015584497 -0.023440655 -0.021973094
-0.016748581 -0.030758332 -0.024794308 -0.028606968 -0.052672625 -0.06694158 -0.0054342896 -0.045524083
-0.05499107 0.03260769 0.0008298966 -0.0072826743 -6.2159006e-10 5.7464513e-09 -2.306568e-08 1.3772409e-08
2.5386248e-08 -1.3723182e-08 4.499671e-09 3.807685e-08 2.3527027e-09 6.252114e-09 1.5757214e-08 -1.0664446e-08
1.3091775e-08 2.7848303e-08 -7.513097e-09 -8.914968e-10 3.4569357e-08 3.8286254e-09 3.3751935e-09 1.4944641e-08
-8.898198e-09 9.6799075e-09 2.5340718e-08 -4.1684607e-09 -1.5838698e-09 2.9754792e-08 1.8727748e-09 -0.06773318
0.086487055 -0.018125458 0.07451284 -0.041928884 -0.038459733 -0.023637136 -0.05233269 0.0790333
-0.008917767 0.09153224 -0.041962706 0.079128526 -0.07622457 -0.04046253 -0.013981768 -0.06428845
0.06602337 -0.026739864 0.081207015 -0.01569791 0.075599976 -0.05240176 -0.05074278 0.015626851
-0.06094524 0.048464324 0.0115597 0.027307827 -0.03372279 -0.020502204 0.02153523 -0.0041016564
-0.028841395 -0.0037799794 0.02881274 0.008851106 0.030974166 -0.02901122 -0.0138736 0.029857298
0.0030892894 -0.027287224 -0.008321713 0.02493728 0.023506908 0.0495129 -0.040576376 -0.010959863
0.05511247 0.012939142 -0.060186345 -0.008696782 0.032132793 0.016916009 0.048467617 0.029480973
0.042641856 0.046229374 0.015516899 0.078171246 0.045389414 0.003412587 -0.12369345 -0.14161181
-0.10725093 -0.13515706 -0.14971775 -0.08479122 -0.069575004 -0.076732896 -0.043913506 0.09351679
0.11558921 0.071203165 0.07779241 0.09551277 0.08455459 0.041889697 0.036440633 0.011262604
-0.020591391 0.07899664 -0.012375984 -0.06580263 -0.050677102 0.14206922 0.08068947 -0.12533352
-0.0011024926 -0.032923326 0.044824425 0.005138848 -0.045782533 -0.09801693 0.09672153 0.100350775
-0.10438676 -0.033169344 0.01795171 0.028712276 -0.0837641 -0.01694521 -0.009373174 0.04102076
0.050781384 -0.012018719 0.015735423 -0.02909259 0.011944075 0.043392513 -0.043695856 0.017161913
0.079079464 -0.066943705 -0.025324568 0.023982111 -0.009626088 -0.059814245 -0.084387 0.0722147

onnx::Conv_137 f4 [40]
00000000: 0151 64b1 8d23 633e 3933 08bf 4d0c 4c3e
00000010: 1f07 08b9 4cf0 8a3e f086 623e b8f7 173d
00000020: 5699 913e ebca 543e 81a4 373e 1245 253d
00000030: 72cc 7d3e 7188 c1b1 e771 6c2e 535b 713e
00000040: 725a 653e cc02 673e 0648 843e 5e27 22b6
00000050: 0706 8f3e 5566 1ab2 1959 763e 60aa a0b8
00000060: 08f7 673e d4f5 5d3e 5a63 7fb0 ca87 9e3e
00000070: d4bd 823e dbe5 793e 2ecd 18bd 1ace bb3d
00000080: 2a4d 9c3e d328 633e 1a84 793e 435f 51b4
00000090: 4a17 473e 58e6 833e 60fd 0a3e 2c5c 7c3e
-3.3224412e-09 0.2218153 -0.5320316 0.19926567 -0.00012972624 0.27136457 0.22121787 0.037101477
0.284373 0.20780532 0.17933847 0.040349074 0.24785021 -5.632551e-09 5.3761353e-11 0.23569994
0.22397783 0.2255966 0.258362 -2.4162796e-06 0.27934286 -8.987247e-09 0.24057426 -7.661129e-05
0.22652829 0.21675807 -9.2909647e-10 0.30962974 0.25535452 0.24404089 -0.03730505 0.0917017
0.30527622 0.22183542 0.24366799 -1.9499298e-07 0.19442478 0.25761676 0.13573217 0.24644536

onnx::Conv_139 f4 [40, 1, 3, 3]
00000000: 3d23 24a5 5b67 a7a4 ef19 2aa6 7ea7 e724
00000010: ea54 1e26 08e3 2b25 c11c f925 6fda 8126
00000020: 09aa 8425 d4b6 043e 1c44 33be af8a 1d3e
00000030: d252 39be 8521 983f 7219 89bf 1af2 cbbe
00000040: d9b5 9a3f c6e9 6bbf 667b 4b3d 52b7 d03f
00000050: f7bb 863f a6ca 4f3f 197a 2a40 75c8 3740
00000060: 7336 f8bf c1b5 253f 45a8 633f b56c 85be
00000070: 9588 bbbe 0126 17bf 519e 523e 47aa b23e
00000080: abbd 01be 0925 503e eea0 503f 0b0c bd3e
00000090: cb5e 4fb5 98e4 fe34 82df b634 3f22 1db4
000000a0: 1caa ab35 d313 3036 07ec cab5 70a6 ebb3
000000b0: c104 e235 6feb d3be 075d 9ebd 5355 bc3e
000000c0: bb60 5abf 8e43 2b40 adef bdbf bd46 a13f
000000d0: e5c1 8ebf 325b 5abe 7a4e a63e 5a36 dfbe
000000e0: 093b ddbe 9aa9 0d3f eaf4 ae3e 95a8 d9bf
000000f0: d81d 143e e561 ed3f 70ad 28bf bc82 003f
00000100: 7d67 5d3d 781e f93e 7efa babc 1438 6abf
00000110: 6bca b3be 205e 3a3e 83a4 4fbf 99d2 c9bd
00000120: a5cb 323f ba03 0a3c aa1a 1abf e3c4 a5bf
00000130: 583e 0c40 b2ca 57be 02d9 b53d 5274 d2bf
00000140: dfa7 873f 856a 32be 7be3 043f db51 253f
00000150: 9d95 4ebf c90f 5b3e 1c05 6e3f 0b6d 34bf
00000160: d696 3cbf 75bb 61be a5c0 47be 23a4 e3be
00000170: 838b b23b bd53 ddbe 3e1e 0abc 007f 0c3f
00000180: 8777 b2bd c093 313f 5eb0 f73e d641 15bd
00000190: 892b 0cbd 3f02 fdbd 767b f4bd 89a2 76be
000001a0: 035b 6abe 0e15 a9bb a1e0 8abe 91da 19be
000001b0: 0757 e2be 7663 343e 911f b53e ceb1 8bbf
000001c0: be19 1440 3145 e9bf 394d d63f 6c4a 23c0
000001d0: e745 b93f c57f 3f25 275f ec23 cb44 8925
000001e0: 343f 27a6 13a4 03a7 c5ff e9a6 7ad2 4423
000001f0: 01dc 9aa6 b51b 7aa6 dc6c 0ba1 391d a1a2
00000200: b345 f6a1 1897 4b23 e06c 0523 3316 8da2
00000210: 5580 dc22 cbb5 1c23 6b41 85a1 a234 7d3e
00000220: 3180 aebe e8e9 afbc 3873 bc3f 0788 13bf
00000230: 5fe2 99bf 6c98 9f3f 5072 9fbd 6a85 3ebf
00000240: 8cd0 34be 9c40 4a3e 676f 29be f779 9a3f
00000250: 06ff 8cbf 23da 59bc c9d4 723f 043a b0bf
00000260: eeb7 eb3e 676a e939 3bd4 233f 31e8 223f
00000270: 84ce 1ebe 1e73 35bf 6918 7cbf e7e6 f1bd
00000280: 829f ea3e ec27 ba3e 8d1e a9be d9fa 2fbf
00000290: f965 673f 5427 fd3f 7c88 03c0 7435 6cbf
000002a0: 0b48 cebe 2178 0240 e3f3 20bf f6aa 2f2d
000002b0: 8687 bead 79a6 39ae e59d 3d2f ee41 512f
000002c0: e3e8 7b2f 163c 342f 5588 032f e137 6b2f
000002d0: ab10 98be cabd 823f 0733 72be 1a33 4ebf
000002e0: d8f5 8e3e 852f ac3f d719 cdbe c95b 88bf
000002f0: f4bb 3a3e a172 8ea7 36ca 8da7 5c16 b9a7
00000300: b6bd 9627 c82a b727 14f3 4b26 e090 0f28
00000310: 5646 0828 37d3 aa27 0da4 5f3d ea8a a4be
00000320: a66a 75bd 9392 9fbd df42 13bf 61cb cbbe
00000330: 492d 263d a604 c6be 2988 13be e7b6 06b4
00000340: be61 9133 f464 902f 1270 ec33 187f 8c34
00000350: d859 9534 041a d032 d36d a734 21ec 9434
00000360: 9899 113e c5a2 873d 43a2 a73d b427 ecbe
00000370: 1ccc b8be 5918 cabe c4a5 e3be 2dc5 80be
00000380: 8d31 81be 0cd0 09bf 7b5b 9bbf 3f9c 74be
00000390: 0f86 a53f 6996 683f f858 01bf 81de 49bf
000003a0: a58b 153f d973 f93e 95b6 33a4 cc54 bba2
000003b0: d3c4 eba2 c0ce 2ba4 e321 a623 c446 5d24
000003c0: c922 a9a2 4b43 c524 53e2 c124 4f4b 11be
000003d0: 4404 7d3f 9356 613d d586 4c3f e7be 8d3e
000003e0: d9d5 94bf adb1 813f 263b 31bf e67b a1bf
000003f0: b102 47bf bba2 183f 2f50 0a3f 001e 0e3f
-1.4236672e-16 -7.2599796e-17 -5.9015745e-16 1.00464024e-16 5.493234e-16 1.4908807e-16 4.32141e-16 9.01038e-16
2.301357e-16 0.12960368 -0.1750645 0.15384935 -0.18098 1.1885229 -1.071089 -0.39833146
1.2086746 -0.92153585 0.04967823 1.6305945 1.0526112 0.8116859 2.6637022 2.87161
-1.9391617 0.6473046 0.88928634 -0.260595 -0.3662764 -0.59042364 0.20568205 0.34895536
-0.12670009 0.20326628 0.8149556 0.3692325 -7.725145e-07 4.747751e-07 3.4062765e-07 -1.4634223e-07
1.2790001e-06 2.6237583e-06 -1.5118866e-06 -1.0973315e-07 1.6839696e-06 -0.4139056 -0.07732587 0.36783847
-0.8530385 2.6759982 -1.4838768 1.2599713 -1.1152922 -0.21323851 0.32481748 -0.43596154
-0.43209103 0.55336916 0.3417123 -1.7004572 0.1446451 1.85455 -0.65889645 0.50199485
0.054053772 0.48656058 -0.022824522 -0.9149182 -0.3511537 0.18199968 -0.811104 -0.098546214
0.69841987 0.00842374 -0.60196936 -1.295071 2.1913052 -0.21073416 0.088792816 -1.6441748
1.0598105 -0.17423446 0.5190961 0.64578027 -0.8069704 0.2139274 0.92976546 -0.70478886
-0.7366766 -0.22044165 -0.19507082 -0.44461164 0.00544876 -0.4322795 -0.008430062 0.54881287
-0.08714204 0.69366074 0.48376745 -0.03643974 -0.034221206 -0.12353944 -0.11937611 -0.2408544
-0.2288628 -0.0051599806 -0.27124503 -0.15024783 -0.44207022 0.17616066 0.35375646 -1.0913637
2.3140712 -1.822424 1.6742316 -2.5514174 1.4474458 1.6609899e-16 2.562747e-17 2.3812328e-16
-5.802542e-16 -1.8268847e-15 -1.6236949e-15 1.06697514e-17 -1.0745529e-15 -8.6773724e-16 -4.7239106e-19 -4.367008e-18
-1.6688058e-18 1.1036647e-17 7.233e-18 -3.824163e-18 5.9766996e-18 8.495273e-18 -9.029747e-19 0.24727109
-0.34082177 -0.02147384 1.4722662 -0.57629436 -1.2022208 1.246839 -0.07785475 -0.74422324
-0.1765768 0.19751209 -0.16546403 1.2068471 -1.1015327 -0.013296637 0.94855934 -1.3767705
0.46038765 0.000445205 0.63995713 0.63635546 -0.15508467 -0.7087878 -0.98474747 -0.11811619
0.4582482 0.36358583 -0.3303112 -0.6874214 0.9038997 1.9777627 -2.0552053 -0.92269063
-0.4028934 2.038582 -0.6287214 9.985559e-12 -2.1660684e-11 -4.2211987e-11 1.7245545e-10 1.9031862e-10
2.2911055e-10 1.6392251e-10 1.1962815e-10 2.1392978e-10 -0.29700217 1.0214169 -0.23652278 -0.80546725
0.2792194 1.3452002 -0.40058777 -1.0653011 0.18235761 -3.95372e-15 -3.93546e-15 -5.1372057e-15
4.183905e-15 5.0839087e-15 7.0759205e-16 7.969509e-15 7.564768e-15 4.741348e-15 0.05459981 -0.32137233
-0.05991616 -0.07791629 -0.5752391 -0.39803603 0.04057053 -0.3867542 -0.1440741 -1.2546262e-07
6.769868e-08 2.626518e-10 1.1009992e-07 2.6169505e-07 2.7818783e-07 2.4226217e-08 3.1186082e-07 2.7738955e-07
0.14218748 0.06622843 0.08185246 -0.4612404 -0.36093223 -0.394717 -0.44462407 -0.25150433
-0.25233117 -0.5383308 -1.2137293 -0.23887728 1.2931536 0.9085451 -0.5052638 -0.7885514
0.58416206 0.48721197 -3.896909e-17 -5.0776234e-18 -6.3905273e-18 -3.725484e-17 1.8012108e-17 4.7981677e-17
-4.584437e-18 8.554913e-17 8.4083816e-17 -0.14188884 0.98834634 0.055014204 0.7989324 0.2768471
-1.1627761 1.0132347 -0.6923088 -1.2615936 -0.7773848 0.59623307 0.540286 0.55514526

onnx::Conv_140 f4 [40]
00000000: f1a8 d9b0 2008 903c d3c6 40be 0d2a 393e
00000010: c6a7 35b8 13af 19bd 9156 7e3c 9745 063f
00000020: 6a0f b8bd 20f1 8e3e fa84 343e f7de fa3e
00000030: 6c62 b8bc 8a4a 7331 a64c dcaf 8cc4 f5bb
00000040: f839 3a3c 31e8 b03e 3277 f73c 3525 dcb4
00000050: 5860 fc3d 87d9 e22f 7e38 5a3f 2ea6 7536
00000060: d37f 4e3f 003d 34bb 28e5 a0af 7c01 893e
00000070: b492 c63c b43c 31bc d7aa 19bd e070 153f
00000080: 4b71 7f3e 79f5 5b3d ba30 4dbd 5c87 f233
00000090: 5695 333f c739 9cbc 35ae 1c3f 1095 f9bd
-1.5836844e-09 0.017582 -0.18825845 0.18082447 -4.3310014e-05 -0.03752048 0.015523569 0.52449936
-0.08987315 0.2791834 0.17628852 0.48998234 -0.022507869 3.5403525e-09 -4.007223e-10 -0.007500237
0.01136636 0.34552148 0.030208204 -4.1005265e-07 0.123230636 4.1263723e-10 0.8524245 3.6604574e-06
0.80663794 -0.002750218 -2.9266656e-10 0.26758945 0.024239875 -0.010817695 -0.03751644 0.5837536
0.24945562 0.053700898 -0.050095297 1.1293625e-07 0.70149744 -0.01907052 0.6120332 -0.121866345

onnx::Conv_142 f4 [80, 40, 1, 1]
00000000: 6b8c 90b0 0f9b 40bd 3307 1cbd 5e0d 84be
00000010: 56a5 67b8 1b2a 3e3c 0fc3 f63b 53d4 39be
00000020: 65b8 443d 78ec fe3c 9360 eabc a652 a8be
00000030: 9812 943b ebf1 30b0 3c2b a42e a4ba edbc
00000040: 2f28 afbc 8657 823c 150a 3a3d 6b83 f8b3
00000050: d911 723b a255 12af e237 fbbc 545c 1436
00000060: 692e 1f3d 1706 4f3d 1491 8e2f 3880 8a3e
00000070: 7867 12bd 80b1 363d f9a9 3ebe 04de edbe
00000080: 3ba5 8c3e 2119 dd3b 49ac d4bc bc4e 92b3
00000090: db05 15be 7c30 84bc 2e35 8b3d 7767 7f3c
000000a0: c90d 8aaf ec73 103d 18a8 69bd 2bca 173c
000000b0: a5a3 48b5 3872 06bd 8915 bbbd c851 073d
000000c0: 7af1 5bbd 31fd 55be cb92 233d d413 a73c
000000d0: 1db8 8fbc ae26 302f 7cf0 ddae 07b4 17bd
000000e0: 77cf 443d 2470 813e d91b 9ebd 02b7 bfb4
000000f0: b506 dabc 5ea6 c52e db86 21be 5644 d2b6
00000100: 1633 afbc 77c6 783d bf6e 512f 25f8 863d
00000110: 22fb babb 22d1 2dbd a5a2 4e3d 3c18 d33a
00000120: bae8 06be 9e06 713d bc1a c13c cbec da31
00000130: 3f71 843d f380 52bd 1caf dcbc 1c5f 91bd
00000140: 7297 802d 5702 1f3e 6be2 903e 93d5 2e3d
00000150: 0dc4 9438 ca40 1abe 6f83 bebc 73d9 f6bc
00000160: 86dc 05be 2c55 f53d 6c29 8c3c 6231 d1bc
00000170: c51c 72be b7ec d5af 919a bdad a6dd 0c3e
00000180: 7738 333e 31a3 893c e181 8abd 4a3a 4835
00000190: ac4e 553e ab64 3130 fe17 e73d 0634 f237
000001a0: e46b 15bd 055e 173d 2d95 852f 6bf5 bd3c
000001b0: c237 8f3d 9bd6 80be 2a50 c93d 1893 fdbd
000001c0: 6c24 1d3e 45cd 183d d117 3d3e b634 38b2
000001d0: f28a 4d3e 5ebf 4c3d d0d9 6b3d 3cf1 9bbd
000001e0: 5640 80af 8fab fabd 7ee1 02be f418 983c
000001f0: 52a9 0cb8 d776 04be 85c9 6ebd 9bff 4bbd
00000200: 30b5 f8bd c46c b43b 572d a9bc 3312 383d
00000210: 12b5 c9bd 8308 2f30 034f 66af 6eab b4bd
00000220: 501c e4bd 906d dabc 0db1 abbd de33 cbb4
00000230: dff4 e8bc d16e 3430 9e39 d13a 4f06 2cb7
00000240: 0005 683c 05a3 51bd 9404 1c2f 4dc8 96bc
00000250: c7de 073c efbd c5bd 7edc abbd de10 363c
00000260: b4e5 2a3c 3b75 8ebd c53c fdbd 914f 1732
00000270: 738c 0ebd 81de d8bd 6dab 19bd fef3 f1bd
00000280: 5084 a62e 2615 c2bd cd07 c0bd ab47 e73c
00000290: b234 8eb7 33ee 8f3e 0c75 8bbe d31a 993d
000002a0: 35cc 29be c6d4 0bbe ff59 bc3d 29bd ba3d
000002b0: e5d2 103e 4781 e6b0 d53f a9ad 3d90 b8bd
000002c0: 9c1b f03c 2ca1 14bb e315 92be 4226 3b33
000002d0: b60c 88bd bbf9 48af 10d3 e83c 866a 9db6
000002e0: 6e5c 8ebd 02b4 4bbe ed19 1d30 7b9c 223d
000002f0: 9bf1 ec3d f8c3 5dbd 8954 da3d 57c8 8d3c
00000300: 30f5 f63d b47b 0bbe 25a9 bc3d 5115 d632
00000310: 8470 d3bc 0135 853e 86fa 953d 9228 9c3e
00000320: 3ca8 8bae 638b 923e 4017 21be d419 883d
00000330: b12d 5ab7 ccc8 843d 9f3b 763d ac73 463d
00000340: 8606 98bc 92d9 073c f960 623b 93b8 2e3e
00000350: 2884 0a3e ae00 7eae 335c e4ad 8299 d83d
00000360: 7785 813e a541 09bd 8979 5dbd 757c 73b4
00000370: ec21 783d 2861 bdaf a195 39be 7465 fcb6
00000380: 90f8 6a3d 7117 03be d0a2 63ad c26b bdbd
00000390: 135b 39be 292e ab3d ee21 ebbd 565c 933d
000003a0: 0320 d33d 11b7 26be c16c 303d da3b 9e33
000003b0: fa22 e4bd da23 14be dd24 5b3b 6ce6 adbc
000003c0: 725f 9bb0 6b8e 7fbe 75bd 12bd c4ff 8c3c
000003d0: 278c 00b8 1323 0d3f de24 ddbe e39d 003d
000003e0: 5684 25bf cebf a2be 8505 a83d fd94 a1bd
000003f0: 09c5 a93e c1d8 acb0 f510 a8af 7458 8bbd
-1.0517288e-09 -0.047022875 -0.038092803 -0.25791448 -5.5228673e-05 0.011606718 0.007530577 -0.18147402
0.048027415 0.031118616 -0.028610503 -0.32875556 0.004518818 -6.4372213e-10 7.4655365e-11 -0.029019661
-0.021381466 0.015910875 0.04541977 -1.1572305e-07 0.0036936908 -1.3309046e-10 -0.030666295 2.210746e-06
0.03886262 0.050542917 2.5932734e-10 0.27050948 -0.035743207 0.04460287 -0.18619527 -0.46458447
0.2746981 0.0067473804 -0.025961058 -6.8129765e-08 -0.14553015 -0.0161364 0.067972526 0.015588633
-2.511185e-10 0.0352668 -0.057045072 0.009264509 -7.474394e-07 -0.03282377 -0.09134967 0.033036977
-0.053697087 -0.20897366 0.039934915 0.020395197 -0.017543847 1.6020849e-10 -1.0092635e-10 -0.03703692
0.048049416 0.2528087 -0.07720155 -3.5709678e-07 -0.026614526 8.9880756e-11 -0.157741 -6.266443e-06
-0.021386664 0.060736146 1.9047784e-10 0.065902986 -0.005706207 -0.042435773 0.05044808 0.0016105245
-0.13174716 0.0588442 0.023572318 6.3715553e-09 0.064669125 -0.051392507 -0.026938967 -0.07098219
1.461917e-11 0.15528236 0.28297743 0.04268415 7.093707e-05 -0.15063778 -0.023256032 -0.030132985
-0.13072404 0.11979136 0.017109595 -0.025536243 -0.23643787 -3.891267e-10 -2.1555454e-11 0.13756427
0.17502008 0.016801449 -0.06763054 7.459063e-07 0.20830792 6.453528e-10 0.11283873 2.8872873e-05
-0.036479846 0.0369549 2.4298555e-10 0.023188313 0.06993057 -0.2516373 0.09829743 -0.123815715
0.15345925 0.037305135 0.18466116 -1.0722195e-08 0.20072535 0.04998719 0.05758077 -0.07614371
-2.3328778e-10 -0.122397535 -0.12781331 0.018566586 -3.3536293e-05 -0.12935959 -0.058297653 -0.04980431
-0.12143934 0.00550613 -0.020651503 0.04493923 -0.098489895 6.3676725e-10 -2.0946449e-10 -0.0882176
-0.11138213 -0.026663572 -0.08383379 -3.7849435e-07 -0.028437076 6.56411e-10 0.0015962606 -1.0253468e-05
0.014161348 -0.05118086 1.4189744e-10 -0.018406058 0.00829286 -0.096553676 -0.08391665 0.01111242
0.010430742 -0.06955954 -0.123651065 8.807448e-09 -0.03480191 -0.10589314 -0.037517 -0.11814116
7.5723094e-11 -0.0947669 -0.09376488 0.028232416 -1.6952257e-05 0.2811142 -0.27237737 0.074758194
-0.16581805 -0.13655385 0.09196853 0.09118111 0.1414295 -1.6771445e-09 -1.9241423e-11 -0.09011886
0.02931004 -0.0022679074 -0.28532323 4.3574126e-08 -0.066430494 -1.8278616e-10 0.028420955 -4.6913656e-06
-0.06951223 -0.19892886 5.715311e-10 0.039700013 0.1156952 -0.05414197 0.10660655 0.017307444
0.120584846 -0.13621408 0.09211949 2.4922572e-08 -0.025810488 0.26017 0.07323174 0.30499703
-6.3508726e-11 0.2862197 -0.15731525 0.06645551 -1.3004451e-05 0.064836115 0.060115453 0.048450157
-0.018557798 0.008291619 0.0034542663 0.17062597 0.13526976 -5.7753517e-11 -2.5961544e-11 0.10576154
0.25297138 -0.03350987 -0.054070983 -2.2676416e-07 0.060579225 -3.4447933e-10 -0.18123485 -7.521996e-06
0.057365954 -0.12801911 -1.2939608e-11 -0.09249069 -0.18101148 0.08358414 -0.11481081 0.07195346
0.1030884 -0.16280772 0.043072466 7.368335e-08 -0.11139484 -0.14466801 0.003343872 -0.021228038
-1.1304861e-09 -0.24956672 -0.03582521 0.017211802 -3.0648105e-05 0.55131644 -0.4319219 0.031400573
-0.64655054 -0.3178696 0.08204178 -0.078897454 0.33158138 -1.2576252e-09 -3.057107e-10 -0.068039805

onnx::Conv_143 f4 [80]
00000000: a073 ff3e 69bd 3e3d 1c7f 69bd 3312 a73e
00000010: c016 fe3c 351b da3d 5e4f 1a3e cf68 aab4
00000020: 749c 293d 1eec 2cb0 28be 0ebe aef1 2dbc
00000030: a8af 0f3c 0a66 733e e5f4 18bc 6772 1b3e
00000040: 811b 013e 7090 23be b9a7 d7bb 08eb f73c
00000050: cc54 7f3d 3aaf dfbe 5547 233d b897 563e
00000060: 4aa1 af3e c426 9db2 9fc4 c83e 5cd3 0e3e
00000070: a6fb 9eb1 f29a 0dbf 2a28 023e 42fa a3be
00000080: ebc4 ddb1 66d7 9e3e d0ec 693c 19e5 43b5
00000090: e665 61be e3ce 81b4 886a 7dbe d629 db3d
000000a0: b8f1 f63b 4079 4b3e 1f03 733e 92d0 22b4
000000b0: 4daa 0d3e d6b4 593e 8826 2cb5 c06c 8c3e
000000c0: 4ec7 413e b804 e73d 26a5 073f 5c3b c83e
000000d0: 3652 2dbb 243c 07bf e03c ebbd 9cc2 a5bc
000000e0: 8223 653d 7c80 a53c 3628 26b6 d825 a1bd
000000f0: 15a1 8d3d 96a5 cb3e 0a57 1bbe 441c 33bd
00000100: 940d 6a3d 4187 a0be 0bb2 dfb2 8ae1 f93e
00000110: a487 edbd 0049 8fb2 8568 a6b4 14a1 c33e
00000120: 3782 5fb0 c0f0 7a3b 8eee 7f3e e4bc 4fb7
00000130: 74fe 10b5 cc1b a13e fac2 b23d 4920 a73e
0.49892902 0.046567354 -0.057005987 0.32631072 0.031016707 0.106497206 0.15069339 -3.1741226e-07
0.04140897 -6.290878e-10 -0.13939726 -0.010616703 0.008769907 0.23769394 -0.009335731 0.1518036
0.12608148 -0.15973067 -0.0065812734 0.030263439 0.062336728 -0.43688375 0.03986295 0.20956314
0.3430274 -1.8294834e-08 0.3921251 0.13947815 -4.6270143e-09 -0.5531455 0.12710634 -0.3202687
-6.4543335e-09 0.3102371 0.014277652 -7.297654e-07 -0.22011527 -2.4178652e-07 -0.2474767 0.10701339
0.0075361393 0.19870472 0.2373166 -1.5163303e-07 0.13834496 0.2126039 -6.4131063e-07 0.2742672
0.18923685 0.11280197 0.5298637 0.39107788 -0.0026446707 -0.5282614 -0.1148622 -0.020234399
0.055942066 0.020202868 -2.4759333e-06 -0.07868546 0.069154896 0.3977477 -0.15169922 -0.043728128
0.057141855 -0.3135319 -2.6041581e-08 0.48804885 -0.11598137 -1.6680588e-08 -3.0995957e-07 0.3820883
-8.1311974e-10 0.003829047 0.24993345 -1.2382141e-05 -5.401446e-07 0.3146652 0.08728595 0.3264182

onnx::Conv_145 f4 [80, 1, 3, 3]
00000000: 7f36 33bf dd2c e3be 9240 b63e ba04 8bbf
00000010: e958 403d 245b 993f 1fb1 96be 3b5e 2c3e
00000020: d2f3 423f 2c4d 20bf 1162 4dbf a6ea 81bf
00000030: b0ee 313f 3c06 3c40 93b9 ab3e cad5 2dbe
00000040: adaf 13bf 7fbe f3be 9d9f b03e a3b0 253f
00000050: 052c 24be 9b33 a63d 0a88 cc3e ddbd f6be
00000060: 7058 923e 5556 2c3f 05ef 23be 4b94 0f3f
00000070: a0c9 6040 3395 863f f7ca 113e d3f2 e7bf
00000080: 5e0b 7bbf 7fd8 883e eaba 8cbf aa14 94be
00000090: 4eb7 033f 2218 dc3e a550 56bf eacc 933f
000000a0: bfaf 713e 55cd 70bf b429 ebbe 40f5 a5bd
000000b0: 32a3 1d3f 4a45 06bf eccb 70bf aba2 b4be
000000c0: a3c3 febd b718 06bf 4ed6 fbbe 5dce 023f
000000d0: 19ac 8a3f 7e47 443f b4d4 1ebe 80a5 59be
000000e0: df97 6d3d 22b7 aebc 48eb b83e ca80 3b3f
000000f0: ab42 bb3d 0728 0f3f cfdf 833e 79e9 f31f
00000100: ec18 b420 b574 51a1 e0ac 2f22 1b75 8b22
00000110: ab80 7321 9a99 699f f681 eb21 ca4b 9a20
00000120: a59e f43e 35ad d4be 49df 2ebf cede 1040
00000130: ccd9 cb3e 7384 be3c d82c bdbf b374 563f
00000140: d263 0640 7216 2f24 6577 75a2 ccf6 1ba4
00000150: cb77 d923 a6d3 0122 5da2 55a4 7952 8123
00000160: 3c89 c0a3 35fa 9fa4 3f8d 73bd 244e eebf
00000170: 68c1 143f 3ecf d9bf c547 8c3f 4b20 a43f
00000180: 13f8 a53e 35b9 b83f 44c3 d7bf 46c9 d339
00000190: 7881 adbb c03c 1dbc 9196 a1bb 3e1c bfbb
000001a0: d9fe acbb 8bb0 febb 00d3 c2bb 7b76 e6bb
000001b0: c505 673f 8f57 4f3f 43d1 96bf 01df b13f
000001c0: 2ba8 bdbe a44d 9cbf 8922 9cbe 856e 94bf
000001d0: cfba 16bf 9b9c 033d 1dd6 fcbd f71c b5bd
000001e0: 8fa7 dfbe e19f 03bf 04d3 2fbf 6768 2dbe
000001f0: a93b 14bf 9f01 37bf 2cad 06bb 4adc 15ba
00000200: 37ff 093b 61d4 023c 1a8a 863b 0155 27bc
00000210: 042e 35bb 69fc 07bb 897f 94b9 79e5 0a3f
00000220: b5ad ff3e 20b0 5fbf d78c fcbf 3bb7 993f
00000230: 3210 0140 b4b6 a03f f9e3 88bf 3c3f a5be
00000240: 4f89 02bf 2e71 83bf 4492 0bbf 01a6 57bc
00000250: 6fcb 0e3f 30d9 56be eabd 773e 1e35 583f
00000260: faac f03e efff adbd 4d40 93bd f743 bcbe
00000270: d6b7 67be b38b 88be e27b b2be 23aa 7cbd
00000280: 81e5 bfbe 3888 27bd 0858 e5b9 d01e e1ba
00000290: c8cf 7eba e3ff b6ba ae06 c63a 08fa 5b3a
000002a0: 3d09 89ba d15c 5a3b 1b93 c1ba 649e 09be
000002b0: 13d7 a7bd 60a6 213e c7a3 53c0 cfb4 a13f
000002c0: c2cd 0740 0076 803f 3deb 0e3f 47bd ccbf
000002d0: fa62 9a3e 6e9f 713f a865 203f aefc bcbd
000002e0: 2c84 c2be e89a b13e d9fa 87be e9c7 e5bf
000002f0: e731 c1be 356d 55bf 662a 9a3d a44c 323f
00000300: 65b1 8fbf aff8 4d3d 2c98 8b3f 91e4 23bf
00000310: 55f9 12be 0bee 1b3e 8a6b c93f 9c1e 19c0
00000320: 0357 6cbe 033a e4be 8c09 643e 99bf c7bd
00000330: c9dd 87bf c48c 0d40 4e7f eb3b 8145 be3d
00000340: d4ff dabf e4c2 19bf 76db 00be 7478 063f
00000350: 1568 df3f 528f 6cbf e1c2 e33f 5a97 803f
00000360: d5cd 0cbf 42a5 17be d1c4 913e b498 75bf
00000370: 0b31 603f 576c 413f 50af 81be 0deb 193f
00000380: b8d2 44be 5a3b 1e29 e9b1 1728 a5e9 1ba8
00000390: 7342 c328 8776 b626 24f9 a7a8 4eaa 7128
000003a0: 51e2 ae27 d68e 08a9 6f3f 86bf 631e 2ebf
000003b0: 80bf 043f 5df3 f2bd 1e52 0c3f 3212 0340
000003c0: 88fa cd3f ce9d 973f f6fd 8fbf 954b 15bf
000003d0: a0a4 73be d3e2 ff3e 526a 5fbf 37f4 d2bd
000003e0: ce69 5d3f 77b7 4bbe 3f0f c33d a63e 1e3f
000003f0: 76de cb26 9443 9026 f644 6927 bf7a 31a5
-0.7000503 -0.44370165 0.35596138 -1.0860817 0.04695979 1.1980939 -0.29432008 0.16832821
0.7615329 -0.62617755 -0.8022776 -1.0149734 0.69504833 2.9378805 0.3354002 -0.16976085
-0.57689935 -0.47606274 0.34496775 0.6472265 -0.16032417 0.08115312 0.3994754 -0.4819173
0.28583097 0.6731923 -0.16009147 0.5608565 3.5123062 1.0514282 0.14237581 -1.8120979
-0.9806422 0.26727673 -1.0994542 -0.28922015 0.51451576 0.42987162 -0.83716804 1.154691
0.23602198 -0.9406331 -0.45930254 -0.08103418 0.6157714 -0.52449477 -0.9406116 -0.35280356
-0.124396585 -0.5238146 -0.4918694 0.51096135 1.083377 0.7667159 -0.15510827 -0.2125454
0.058006164 -0.021327559 0.36117005 0.7324339 0.09143575 0.5592045 0.2575669 1.0330075e-19
3.0509678e-19 -7.0966415e-19 2.3808442e-18 3.7800016e-18 8.2501893e-19 -4.9466725e-20 1.595862e-18 2.6138768e-19
0.47777286 -0.41538396 -0.68309456 2.263599 0.39814603 0.023256516 -1.477931 0.8377182
2.0998425 3.7966088e-17 -3.3266898e-18 -3.3819312e-17 2.3577921e-17 1.7594806e-18 -4.632454e-17 1.4021137e-17
-2.0874803e-17 -6.9379125e-17 -0.059460875 -1.8617597 0.58107615 -1.701637 1.0959402 1.2822355
0.32415828 1.4431521 -1.6856465 0.00040395017 -0.005294975 -0.009597003 -0.004931279 -0.005832224
-0.0052794036 -0.0077725104 -0.0059455633 -0.007033167 0.9024318 0.8099298 -1.1782612 1.389618
-0.37042364 -1.2211194 -0.30495098 -1.1596228 -0.588788 0.032131772 -0.12345526 -0.08843415
-0.43682525 -0.5141583 -0.6868136 -0.16934358 -0.57903534 -0.7148685 -0.0020549996 -0.00057167246
0.002105666 0.007985205 0.0041058185 -0.010213138 -0.0027645836 -0.0020749813 -0.0002832378 0.542564
0.49937215 -0.8737812 -1.9730481 1.2009043 2.0166135 1.2555757 -1.0694572 -0.32274806
-0.50990766 -1.0268915 -0.5452006 -0.013162137 0.55779165 -0.20981288 0.2419354 0.8445605
0.4700697 -0.08496081 -0.07189999 -0.36770603 -0.22628722 -0.26669082 -0.3486014 -0.061685693
-0.37479785 -0.040901393 -0.00043743872 -0.001717532 -0.0009720293 -0.0013961758 0.0015108192 0.00083914446
-0.0010455024 0.0033319483 -0.0014768572 -0.13439327 -0.08195319 0.15786123 -3.3068712 1.2633303
2.1219335 1.0036011 0.55827695 -1.5995263 0.30153638 0.94383895 0.62655115 -0.09227882
-0.37991464 0.34688497 -0.2655857 -1.7951633 -0.37733385 -0.8336976 0.07527618 0.69648194
-1.1226012 0.05028599 1.0905814 -0.6402064 -0.14352925 0.15227525 1.5735943 -2.3924932
-0.23080067 -0.4457551 0.22269267 -0.09753341 -1.0614558 2.2117167 0.0071868068 0.092906006
-1.7109323 -0.60063004 -0.12583718 0.52527547 1.7453638 -0.9240619 1.7793847 1.0046189
-0.55001575 -0.14809135 0.28470472 -0.9593613 0.87574834 0.7555594 -0.25329065 0.60124284
-0.19221008 3.5134527e-14 8.420762e-15 -8.654892e-15 2.1678167e-14 1.2660914e-15 -1.8648772e-14 1.3415116e-14
4.8540074e-15 -3.0321957e-14 -1.0488108 -0.68015116 0.51854706 -0.11862824 0.548128 2.0479856
1.6092081 1.1845033 -1.1249378 -0.58318454 -0.23793268 0.4997774 -0.87271607 -0.103004865
0.8648957 -0.19894205 0.09524392 0.61814344 1.4146253e-15 1.0010324e-15 3.237263e-15 -1.5393891e-16

onnx::Conv_146 f4 [80]
00000000: 9090 043c 5166 cdbc bd3e 82be e50e 59be
00000010: e948 e13d 7287 123e 246f 94bd b5d1 adaf
00000020: c16b 48be 131d 032f 1141 80bc a5e9 823b
00000030: 37e9 293e 8c13 213f 7ad5 fbba 6ad8 2dbe
00000040: 9df7 cdbd e434 b33e aae3 543a 7448 a7bc
00000050: 461a 1d3e dcc2 f93c 81e1 54bc 0095 073b
00000060: 19cd fbbd 1246 94b1 b685 2fbe 6792 babc
00000070: 7f65 46b0 8cfc 7ebe f840 3c3e 4c56 2abd
00000080: da6b 09b2 802a 98be 72c2 363e cd03 5ab4
00000090: 3d30 8b3e e66a 6434 4328 843e 0451 8abd
000000a0: e5bb 57be 382c 533e a05d 39ba 4d2a e332
000000b0: 393f 64bf 5440 42bc 0eb9 ca34 4d4c 29be
000000c0: ec15 8fbc d8ab 043f 2fa9 633c 9266 1ebe
000000d0: 350c cbba 3431 c9bd 0082 0dbe 9800 5abd
000000e0: fd51 6d3e 1c07 cc3b 5d08 acb5 0b44 d4bd
000000f0: a7f2 16be 0315 54bd dace 68bd 3ec1 d2bc
00000100: 4a5a 903e 390e d8bd a401 50b1 8092 a7bd
00000110: 120c f03d 7531 b6b1 30c6 d9b2 18e2 3cbb
00000120: 873f 6b2d 1e74 fc3c 0a16 81be 9a50 bfb6
00000130: 7ce6 a1b3 0ea3 43bd 1c08 a6bd c4c5 213f
0.008091107 -0.025073202 -0.2543849 -0.21197088 0.11000235 0.14309481 -0.07247761 -3.1617522e-10
-0.19572355 1.192471e-10 -0.015656026 0.0039951378 0.1659287 0.6292045 -0.0019213401 -0.16977087
-0.10056994 0.3500129 0.0008121083 -0.02042029 0.15342054 0.030488424 -0.012993217 0.0020688176
-0.12294979 -4.315333e-09 -0.1714085 -0.022774888 -7.2176215e-10 -0.24901026 0.18384159 -0.041586205
-7.998972e-09 -0.29719925 0.17847613 -2.0304215e-07 0.2718524 2.1273044e-07 0.25811967 -0.06753734
-0.2106777 0.20622337 -0.0007071141 2.6445514e-08 -0.8915897 -0.011856157 3.7760077e-07 -0.16533013
-0.017466508 0.5182471 0.013895317 -0.15468815 -0.0015491309 -0.09823838 -0.13819122 -0.053223222
0.23175807 0.0062264334 -1.2817433e-06 -0.10364541 -0.14741002 -0.05177785 -0.056837894 -0.02572691
0.28193885 -0.10549588 -3.0268916e-09 -0.081822395 0.11721052 -5.3025198e-09 -2.535225e-08 -0.0028821286
1.3372309e-11 0.030817088 -0.25212127 -5.701627e-06 -7.5390716e-08 -0.047762923 -0.081070155 0.6319239

onnx::Conv_148 f4 [80, 80, 1, 1]
00000000: deef 853d 3fc3 d4bc dada 853e 476b 0bbe
00000010: 21e7 26bd faf8 80be 39b4 1b3d 2651 23af
00000020: 022f d2be 6d2d 3230 a392 1f3c 06d9 863a
00000030: e9ad 42be 53a7 e23d 505f 2f3a 30d4 3ebe
00000040: eaa7 27be 21b8 f33d c52f 903b 2ea9 2e3d
00000050: 9cd7 023f f4d9 c63d 3c99 d5bd 59d6 1d3e
00000060: dad2 823b 3685 9eb0 632e bebe a5e3 9abd
00000070: cb86 0cb1 51e4 b83d 72db d73e 34a3 793e
00000080: 31f0 4631 abb5 d3bc a97a 5b3e 7dc5 36b4
00000090: 9cc9 27be b39e 9733 0b2a df3e 5dbd 09bd
000000a0: f6e4 883e ec57 3dbe 3e17 483e 83f8 09b4
000000b0: cb36 cfbc 19e2 e13c 85d8 9cb4 e1d2 acbe
000000c0: 60a8 53be b8e7 d3bd 10bf 1a3d 86a9 99be
000000d0: 6da0 d7ba 4f10 9a3e 4a94 7ebe 76df d53e
000000e0: 225b d63d 5df4 813e ea0a 5135 c1b2 8c3e
000000f0: 98fd d5bd 9d27 5dbe 6180 2dbd 9b92 96be
00000100: c654 bf3e 70ce 75be 7070 ab30 01cf fd3d
00000110: 8b76 48be b61b 7eb2 74a2 0134 48dd 6b3e
00000120: 300f 8cb0 9da1 fe3d 4e87 9abc 896f a2b6
00000130: 7eb4 9db2 dd85 06bc 470d 513e 631e 4bbc
00000140: bc4a 863c 81d3 ef3c 5f76 07be 6cbf 72be
00000150: feef 88bd be02 a8bc 0bd4 d13c 836e f9ae
00000160: b898 e4bb 0758 942f 501e 23bd 8424 2d3b
00000170: 49b4 4e3d 1c1f 9ebe 7ee0 a6ba 19c6 5ebe
00000180: a219 193d 3fb5 8abd 43bf aeba 425c 60be
00000190: ac22 96be d20e f13d 6f49 b5bd f529 623d
000001a0: c831 f1bd 6091 92b1 20e5 023d 5e3d 223d
000001b0: 5368 11b1 6876 1cbd fd8c 6fbb 85b6 b0bc
000001c0: 095a e831 7321 e03d 730d 53bd 3870 7134
000001d0: 5683 44bb 65af 2d33 8888 9fbd af7f 9a3d
000001e0: b727 bc3d 4daa dcbd 04e4 1bbe 8593 02b4
000001f0: 2138 febc d874 10be 2aaf 2134 c499 b13e
00000200: 4a7b 22be 7c4c be3d 74d8 46be 21f6 d5be
00000210: 4fbf 5639 31a7 3bbd b9d3 00be e516 0c3e
00000220: f1e3 d0bd 92fe 41be 901c 8935 4ef6 02be
00000230: a75e 363e 84f5 853b 16d0 32bf 9299 89be
00000240: d427 29be 0262 b23e 14dc 78b1 28c0 adbd
00000250: 243d 02bf 5315 1d31 4dee 13b3 bd51 233d
00000260: 0847 12b0 85e8 e6bd 6836 d03c 54a7 4937
00000270: 1e55 7d34 bafa 133e 037a 7d3e 7903 333f
00000280: 0b8f 22bd 753a d1be 510f b3be f0d6 09be
00000290: 2758 9abd 81b8 2e3e d019 9f3d b0aa 592f
000002a0: a5d6 4abd 3df3 192f b083 65be 8bf0 86ba
000002b0: ab80 d83d 80fa 23be 1ecf 0ebb fb4e aabc
000002c0: 7534 29be 916d 8ebd dc46 ddba a1ba e2bd
000002d0: d33f 2abe 4deb 043d 59c3 65be 2198 12be
000002e0: 1b7a f8bd fe33 ae31 b2ae 43be 4b14 4e3b
000002f0: f6c0 9131 f3a4 7bbb 3f40 5e3d 53b0 93bb
00000300: ed3a 0231 eddb 67be 1d4c 8f3d b2d2 e032
00000310: 3679 99bc fd36 fdb3 e018 77be 7e5f afbc
00000320: b989 be3d 55ab 2abd e4f0 dfbd cca2 bf33
00000330: 5b4e e23d b814 02be 167f de34 3729 513f
00000340: 7dad 07be c62a 473e 69cd 6d3c 3cb0 b4bd
00000350: 218f 41ba 43c0 63bd 69d9 e63c c8b8 b9bd
00000360: 490a 90bd de7b d0bd 7419 d635 97ad cabd
00000370: 926f f6bd 9f70 8cbd b62a 0dbf a2dc 21be
00000380: 447a 763d 42e2 b43d ae51 4530 277a 81be
00000390: c584 05be 3ff3 ab32 2d09 28b3 5494 a8bd
000003a0: 11af 19b0 999e 00be e70d e63d 19b0 b1b7
000003b0: 0abc 1cb4 c0f5 7d3e 6b0f 613c c7d2 14be
000003c0: cad4 0a3f 4d5b 4f3d 6203 c6bd f06c 193e
000003d0: a36e ebbd 4bf5 7d3e 9b39 b53c 4f62 00b0
000003e0: 73c3 04bf 2e77 1eb0 2c3c adbd 8921 afbb
000003f0: ce93 a53e 7df4 00bc 96fd 143b 410c b5be
0.06539892 -0.025972007 0.26143533 -0.13615142 -0.040747765 -0.25189954 0.03801367 -1.4853593e-10
-0.4105149 6.4820577e-10 0.009739551 0.0010288067 -0.19011654 0.11067071 0.0006689923 -0.1863563
-0.16372648 0.11900354 0.004400226 0.04264181 0.51110244 0.0970954 -0.10429618 0.15413798
0.0039924206 -1.1533874e-09 -0.37144765 -0.07562951 -2.0449302e-09 0.09027923 0.4215961 0.24378663
2.8949325e-09 -0.025843462 0.2143351 -1.7021917e-07 -0.16385502 7.060353e-08 0.43586764 -0.033627857
0.26737183 -0.18490571 0.19540116 -1.2849527e-07 -0.025294682 0.027573632 -2.9214803e-07 -0.33754638
-0.20669699 -0.10346931 0.037779868 -0.3001215 -0.0016451009 0.30090567 -0.24861255 0.4177205
0.10466601 0.25381747 7.787445e-07 0.27480128 -0.1044876 -0.21597143 -0.04235876 -0.29408726
0.37369365 -0.24004531 1.2473844e-09 0.123929985 -0.1957647 -1.4791047e-08 1.2073161e-07 0.23033631
-1.0190657e-09 0.12433169 -0.018863346 -4.8409606e-06 -1.8359284e-08 -0.008210626 0.20415221 -0.0123973815
0.016393058 0.029275658 -0.13228749 -0.23705834 -0.066864 -0.02050912 0.025613805 -1.134284e-10
-0.0069762133 2.698359e-10 -0.03982383 0.002641947 0.050464902 -0.3088311 -0.0012731699 -0.21755256
0.03737796 -0.06772851 -0.0013332147 -0.21910194 -0.29323328 0.11770405 -0.08851897 0.055215795
-0.11777073 -4.2656865e-09 0.031956792 0.039609306 -2.1159579e-09 -0.03819886 -0.0036552541 -0.021571407
6.7623245e-09 0.1094388 -0.051526498 2.2485699e-07 -0.002998551 4.043922e-08 -0.07789713 0.07543885
0.091872625 -0.1077467 -0.152237 -1.2160861e-07 -0.031032624 -0.14107072 1.5058018e-07 0.34687626
-0.15867344 0.09291932 -0.19418508 -0.41789344 0.00020479898 -0.045813743 -0.12580766 0.13680609
-0.101997264 -0.18944767 1.0215608e-06 -0.1278927 0.17809545 0.0040881056 -0.69848764 -0.26874977
-0.165191 0.348404 -3.621385e-09 -0.084839165 -0.50874543 2.2858628e-09 -3.4442838e-08 0.039872874
-5.321543e-10 -0.11274818 0.025416568 1.2019493e-05 2.3593427e-07 0.14451113 0.24753575 0.69927174
-0.039687198 -0.40864912 -0.34972623 -0.13460898 -0.07536345 0.1706257 0.07768595 1.9796675e-10
-0.049521107 1.4001685e-10 -0.22413516 -0.0010295076 0.105714165 -0.16013527 -0.0021790932 -0.020789614
-0.16523917 -0.06954492 -0.001688208 -0.11070753 -0.1662591 0.032450963 -0.224378 -0.14315845
-0.12132665 5.0699773e-09 -0.1910961 0.00314452 4.2419925e-09 -0.0038397878 0.05426049 -0.0045071035
1.8950985e-09 -0.22642489 0.06996939 2.6172845e-08 -0.018734556 -1.1791233e-07 -0.24130583 -0.021407839
0.09303612 -0.0416673 -0.10934618 8.923743e-08 0.11050101 -0.12703216 4.144319e-07 0.81703514
-0.13249774 0.1944991 0.014514306 -0.088226765 -0.00073836936 -0.055603277 0.028179841 -0.09068447
-0.07033212 -0.10179876 1.595165e-06 -0.09896391 -0.12032999 -0.06857418 -0.55143297 -0.15806821
0.060175195 0.08832218 7.1784256e-10 -0.25288507 -0.13038929 2.0017636e-08 -3.9123893e-08 -0.08231416
-5.590986e-10 -0.125605 0.112331204 -2.1182046e-05 -1.459704e-07 0.24800777 0.013736586 -0.1453353
0.5423094 0.05062418 -0.09668614 0.14982963 -0.11495712 0.24800603 0.022122195 -4.6705834e-10
-0.5186073 -5.764943e-10 -0.084587425 -0.005344574 0.3233933 -0.007870791 0.0022734157 -0.3536091

onnx::Conv_149 f4 [80]
00000000: f5ce 74be a826 863e 2c33 583e 46b4 3e3e
00000010: ac95 bebc 3a9c a13e 4879 6fbe 4658 723e
00000020: bcf5 f53d 02ae 1cbe b30b 0d3e 441e 363d
00000030: 44a4 6cbe 7c74 b2bd 1006 603e 70d6 983b
00000040: 083c 713e ea6a f53d 37b0 6bb7 76af d93d
00000050: 8a69 b93e 9237 18b7 c89e 92bc daa0 e1b3
00000060: d0e9 8d3b 9a86 90b4 34bf dc3d 2da2 0eb1
00000070: 2581 8a3e 67a4 27b3 4c16 98af 8625 bf3d
00000080: f220 dfbd a5a4 753d 78f4 3f3c 17cf 4abe
00000090: a623 7a3e 28c0 8c3e acd4 deaf 463b 09be
000000a0: c1a1 b6b0 3034 cebc b326 dbbd 7514 923e
000000b0: 1834 dcaf 0bde e73d a520 163e c800 7d3e
000000c0: ae01 4bbe 30aa 293f d5cb 2a3f 4080 95bc
000000d0: 711e 60be 8473 433e 995d ddbd 0dca 05be
000000e0: 8062 ef3b bdd7 d4af c065 043c 0847 f3bc
000000f0: 8843 573d e86c b6af 93d2 b83d c015 dbbb
00000100: c1a1 263e 3435 b13d 9425 c13c 0c39 44bd
00000110: d92b 0bbf fd97 533e cd33 15be e081 fcba
00000120: e83b f93c 6868 b03e be3e e3bd 4479 51ba
00000130: bcda c8bd 6f5c 17b0 a366 823d f018 babe
-0.23907073 0.26201367 0.2111327 0.18623456 -0.023264728 0.31564504 -0.23386109 0.23666486
0.12009761 -0.15300754 0.13773994 0.044462457 -0.23109537 -0.08713624 0.21877313 0.004664235
0.23558056 0.11983283 -1.404812e-05 0.1062917 0.36213332 -9.0728445e-06 -0.017897978 -1.0506638e-07
0.004330851 -2.6920026e-07 0.107786566 -2.0755906e-09 0.27051654 -3.903224e-08 -2.7664482e-10 0.09333329
-0.10894956 0.05997147 0.011716001 -0.19805561 0.24427661 0.27490354 -4.0532677e-10 -0.13401517
-1.3288216e-09 -0.02517137 -0.10700741 0.28531232 -4.0054782e-10 0.11321648 0.1466089 0.2470733
-0.1982486 0.6627531 0.66717273 -0.01824963 -0.21886612 0.19087034 -0.10808868 -0.13065358
0.0073054433 -3.8715867e-10 0.0080809 -0.029696956 0.052554637 -3.318299e-10 0.09024539 -0.0066859424
0.16272642 0.08652726 0.023577489 -0.047905967 -0.5436378 0.20663448 -0.14570542 -0.001926478
0.030424073 0.34454656 -0.110959515 -0.0007990787 -0.09807345 -5.5064836e-10 0.06367233 -0.3634715

onnx::Conv_151 f4 [80, 1, 3, 3]
00000000: 529c 043d 19ae 0c3e d8b7 593d 2366 0e3e
00000010: 0626 963e c12d 603e 9f2f ce3d 6aea 703e
00000020: f079 473e 3da4 283e cdb8 a83e be59 da3d
00000030: 6f2c 9f3e bfde f83e a45f a53e 9c34 413e
00000040: 4a01 b73e 44b3 883e ae45 d2bd 88fe 37be
00000050: 574d f2bd 9c9e 3cbe fcc1 ecbe e720 9cbe
00000060: 9ba4 e9bd 402f babe 66f3 68be 95ae a93d
00000070: d519 273e da6e 163e 1edb 553e 5443 9f3e
00000080: d90c 4b3e 6786 113e 1e66 823e a8a8 303e
00000090: 8e99 0abd 4b9d 37be a6bd 51be 9909 88bd
000000a0: d92c 9cbe a9d6 9dbe 3d79 9bbc 0fef 30be
000000b0: 1bbc 71be 9042 00be 532e 11be 207f 5bbd
000000c0: e2f7 53be 8aca d3be 2653 a0be d919 15be
000000d0: 3276 b4be 9817 90be a261 51be f42e 75be
000000e0: 3683 0ebe 48d4 56be a08b abbe fbff 33be
000000f0: 5232 bebd 079b 02be 4b1c f2bc 4881 313f
00000100: e639 9f3d dbbc 3dbf 2821 583f fc0b 71be
00000110: 649f adbf 435b 8e3e 0b41 d6be 7d11 93bf
00000120: a960 443d d770 45be ea21 05bf fdce b43e
00000130: d65b cd3c 8e1f fcbe b7b3 d23e 9e0e 903e
00000140: 6521 9cbd 01dd 3d3e 0776 e13e e94c d93e
00000150: ef3d e43e a2aa 6c3f 0742 433f 5004 de3e
00000160: dd52 2b3f d822 f43e 8623 e3bd 0349 54be
00000170: 188b 02be da1e 72be e2b7 b0be 9c6b 75be
00000180: e71a 1cbe ec0c 49be 0db4 1abe ea53 6f3e
00000190: 2b73 e33e d58a 503e 1b2d 003f dac4 3a3f
000001a0: a22d e93e e64e c13e 7684 023f 8e9c 953e
000001b0: 22e4 4b3e e755 823e bb66 6d3e a5d7 8db9
000001c0: f01a 80bd 6f91 193c 9273 5dbe 75b3 bcbe
000001d0: d593 84be 0495 e53d 1390 5b3e dd8b 5a3e
000001e0: 93b7 e13d 2dce ac3e 3ca2 7c3e 9bce c23d
000001f0: 0c17 1f3e d058 d73d 0876 983e f074 ae3e
00000200: a18c 173e 5806 003f 331e 3e3f b8d4 e23e
00000210: e3fc d83e 101c 303f 0072 8f3e b940 833e
00000220: f44c a23e bb80 a53e 8d9b 0a3e e3c2 ae3e
00000230: d184 be3e f495 a4be 0e25 7cbe 6cd2 7bbb
00000240: 8566 14be d691 b7be 689a 8dbe 4903 55be
00000250: 3180 e2be ac80 a0be 458f 04be 2a3b 9bbe
00000260: c530 2cbe 029e 37bd 1aaf 07be 4aba 8abd
00000270: 6687 0ebe 8e86 8ebe 1fa1 8cbe 71c2 2cbe
00000280: 7d9f a6be c97c 58be 49c6 813a 47eb f13a
00000290: 39b7 5cba 01ce 4d3a ade0 103b 2d7a e93a
000002a0: 003f b1ba 6ec3 8a39 3fdc ee3a a975 24be
000002b0: 1c6e 83be 6a62 60be d242 5bbe db33 0abf
000002c0: 6627 cbbe e8f1 24be 9c8c bbbe d4dd 96be
000002d0: 381c 75be 5e73 97be a6d2 d6bd c674 83be
000002e0: 06d6 05bf be2c 9abe 084d 91bd ade5 4ebe
000002f0: 6956 e9bd e3bb 1b3e d928 b63e 868a c53e
00000300: cbd3 243d 1c24 3a3e 62e5 183e cfcc 3fbe
00000310: 6823 9cbe e615 68be 76f3 37bd e564 0ebe
00000320: e409 17be 18e7 c1be 7187 12bf 0604 d5be
00000330: 2331 d6be b4cc ebbe b03b b0be 4ae6 9d3d
00000340: 9005 92be 5a29 193e 9ff1 5a3f d15a 573f
00000350: af1b a83e 0f80 673f e561 823f 914f e03d
00000360: e648 bebd 70fa 98be 7ad3 34be c33e 1dbe
00000370: e19d bdbe a76e 95be 5206 5cbc eb2c 1bbe
00000380: d97b 28be 3393 0529 4de8 b7a9 7316 7ea9
00000390: f2bf 65a9 c255 bda9 41fa c4a9 5f8a a1a9
000003a0: 22bc 19a9 e750 eea8 229f 543e d443 2c3d
000003b0: 3744 aabe c071 973e 8f68 943c 717f afbe
000003c0: 186c 933e 0c89 bebc 9046 70be 91ab 44be
000003d0: e192 21be 6c06 85be cd53 71be 90d4 bfbe
000003e0: bf05 84be 8f6c 78be cb22 b6be c749 4ebe
000003f0: 8b8b 9b3e 209d da3e 6e91 9dbf f9b4 813f
0.03237564 0.13738288 0.053153843 0.1390615 0.29325885 0.21892454 0.10067677 0.23526922
0.19480109 0.16468902 0.32953492 0.10661648 0.31088588 0.48607442 0.3229953 0.18867725
0.3574317 0.2669927 -0.102671966 -0.1796819 -0.11831158 -0.1841988 -0.46241748 -0.30493852
-0.11408349 -0.36364174 -0.22749099 0.08285252 0.16318448 0.14690724 0.20884368 0.31106055
0.1982912 0.14211427 0.25468534 0.17251837 -0.033837847 -0.17931096 -0.20482501 -0.066424556
-0.30502966 -0.30827835 -0.01897871 -0.17278694 -0.23606913 -0.12525392 -0.14177828 -0.053588033
-0.20700029 -0.41365463 -0.31313437 -0.14560641 -0.35246426 -0.28143 -0.204474 -0.23943692
-0.1391724 -0.20979416 -0.33504963 -0.17578118 -0.092869416 -0.1275445 -0.029554507 0.6933789
0.07774715 -0.74116296 0.8442559 -0.23539728 -1.3564267 0.27804002 -0.418465 -1.1489712
0.047943745 -0.19281326 -0.52004874 0.3531417 0.025068205 -0.49242824 0.41152737 0.28136152
-0.07623557 0.18541338 0.4403536 0.4244149 0.44578502 0.92447865 0.76272625 0.43362665
0.66923314 0.47682834 -0.1109076 -0.20730977 -0.12748373 -0.23644581 -0.3451529 -0.23966831
-0.15244637 -0.19633836 -0.15107746 0.23371854 0.44423804 0.2036546 0.50068825 0.7295662
0.45542628 0.37755507 0.5098337 0.29221004 0.19911245 0.25456163 0.2318372 -0.00027054283
-0.06255138 0.009373053 -0.21626118 -0.36855665 -0.25894037 0.11210063 0.21441679 0.21342416
0.11021342 0.3375105 0.24671263 0.09512063 0.15536135 0.105149865 0.2977755 0.3407359
0.1479974 0.5000968 0.7426483 0.44302917 0.42380437 0.6879282 0.28016663 0.25635317
0.31699336 0.32324776 0.135359 0.34133062 0.37210706 -0.32145655 -0.2462351 -0.0038424982
-0.14492233 -0.35853451 -0.27656865 -0.20802034 -0.44238427 -0.3134817 -0.12945278 -0.30318576
-0.16815479 -0.044828422 -0.1325039 -0.06773813 -0.13918838 -0.27837032 -0.27466676 -0.16871049
-0.32543555 -0.21141352 0.0009901013 0.0018456959 -0.0008419636 0.00078508264 0.0022106573 0.00178129
-0.0013522804 0.00026467018 0.0018223597 -0.16060509 -0.25669944 -0.21912542 -0.21412209 -0.53985375
-0.39678496 -0.16107905 -0.36630714 -0.29466116 -0.23936546 -0.29580206 -0.10489397 -0.2567503
-0.522797 -0.3011226 -0.07094771 -0.20204802 -0.113934346 0.15208392 0.3557804 0.38582247
0.040241044 0.18177837 0.14931253 -0.18730472 -0.30495763 -0.22664604 -0.044909917 -0.13905676
-0.14749867 -0.37871623 -0.5723792 -0.41604632 -0.41834363 -0.46054614 -0.34420538 0.0770994
-0.2851987 0.1495718 0.85524935 0.8412295 0.3283362 0.90429777 1.0186125 0.10952676
-0.09291248 -0.2987857 -0.17658797 -0.15355973 -0.37034515 -0.29185984 -0.013429241 -0.15153854
-0.16453494 2.9659607e-14 -8.16713e-14 -5.64188e-14 -5.10147e-14 -8.408163e-14 -8.7475606e-14 -7.17384e-14
-3.4136004e-14 -2.6458394e-14 0.2076383 0.042056873 -0.3325517 0.29578972 0.018116264 -0.34276918
0.28793406 -0.023258708 -0.23464417 -0.19206072 -0.15778686 -0.25981462 -0.23567124 -0.3746686
-0.25785634 -0.24260162 -0.3557342 -0.20145331 0.303799 0.42698002 -1.2310007 1.0133353

onnx::Conv_152 f4 [80]
00000000: 3cd9 4bbe 48ec 42be a85d 3e3f 716e e9be
00000010: bc32 2c3f d775 533f bbc3 1b3f e0cf 013f
00000020: eef7 943d 0083 223a a00e 113f 4022 273c
00000030: 8812 3a3e ceb9 8cbe f2e9 d4bd e502 8cbe
00000040: 8991 393f ba5c e33e 27e2 0aba d049 653f
00000050: 0b37 5b3f fc19 eabc aa2a 633f 31f8 06be
00000060: 1d6c 0b3f b5cd 76b2 0482 533d c939 f93e
00000070: aa28 333e 68b5 c23e 9982 95b2 648c 2f3f
00000080: c082 823b 68a7 dcbe 300a 86be d04d 193c
00000090: 0255 1e3f 4e60 263f a290 70be da78 9ebd
000000a0: 9bfd e23d 50e5 75bd 0fe6 643f c793 0b3d
000000b0: 10f5 98bc 3228 223f 488d 0e3c 9ad2 48bd
000000c0: c956 30be 9dad 3e3f 6ffb 0cbf 69df 1d3f
000000d0: 0008 4dbc cece 153f e0a8 f53e f840 10be
000000e0: 635a 223f d052 6bbe eb1a 5a3f 6d20 133f
000000f0: 2c9f 61be 5bd7 91be 7cb6 2c3f ce94 203f
00000100: fa6c dc3e 8416 ebbe 0a75 71bd 5433 2a3f
00000110: 9627 23be 10e5 2b3c b0e2 6dbd 9214 053f
00000120: f046 cfba 16ee f83e 70bd 6dbd 20aa c237
00000130: 64bc f53e 3c8e 90be 3cfe a9be bf1a 8bbe
-0.19907087 -0.19035447 0.7436166 -0.45592073 0.67264915 0.82601684 0.60845536 0.5070782
0.07273851 0.000619933 0.5666294 0.010201037 0.18171132 -0.27485508 -0.10396184 -0.27345958
0.72487694 0.44406682 -0.00052979816 0.89565754 0.85630864 -0.028576843 0.88736975 -0.13180615
0.5446184 -1.4365857e-08 0.051637664 0.486769 0.17495981 0.38029027 -1.7405272e-08 0.68573594
0.003982872 -0.4309647 -0.26179647 0.009356931 0.6184846 0.649907 -0.23492673 -0.07737894
0.11083528 -0.060033143 0.8941354 0.03407648 -0.018671542 0.63342583 0.008700676 -0.04902897
-0.17220606 0.7448366 -0.5507116 0.6166902 -0.012514114 0.58518684 0.47980404 -0.14087284
0.6341917 -0.22980809 0.85197324 0.5747135 -0.22033376 -0.28484616 0.6746595 0.6272706
0.43051893 -0.45915616 -0.058949508 0.6648457 -0.1593307 0.0104916245 -0.058077514 0.5198451
-0.0015813988 0.48619145 -0.05804199 2.3205823e-05 0.47995293 -0.28233516 -0.33201778 -0.27168843
